studies_tests/Models/custom_cnn_segmentation_vary_disk.pth (torch, 937007 bytes, 22 tensors)

conv1.weight f4 [64, 1, 3, 3]
00000000: 06a3 89bd 8a7a 06be 7821 31bd c6f6 1cbe
00000010: 0d7d 543e 90d0 82bd 6045 e9bd 4040 9abd
00000020: 0ea4 66be 4377 3dbd 1a52 9b3d 1617 403e
00000030: edbb a5be 91f9 c83d 9424 88be 79b8 583d
00000040: 72ac 563d 25ab 8a3e a7a4 a6be 366c c33d
00000050: 315f 963e c471 9d3e 7451 6dbe 8e2b a13d
00000060: 4545 8cbe facb 9bbe 62cb 39bb f457 70bd
00000070: e005 9b3e d9fa e4bb 0db8 913e 3b26 ad3e
00000080: e1d9 613d cfee 3d3e f02f 4cbd 5a04 92be
00000090: 7fb3 acbd a554 8cbc bd36 72be 4bfe 97be
000000a0: 2ebc 443e 6730 183e 05ff a43d 3895 a1be
000000b0: c894 883e 5e1c 84be 592e 423e 7b82 80be
000000c0: f1b2 27be fc03 a3be c47e 6fbd 7305 123e
000000d0: e3c9 86be 3cbe b2bd 34e4 603e bd60 173e
000000e0: 99d5 43be 8d49 ac3d b2d9 18be d696 febd
000000f0: 0992 d43d 7820 2dbe 59e4 9ebe f1ea 943c
00000100: ccdb 0a3d c942 9c3c c524 513e a4b6 30bc
00000110: a747 66be 2cbb 28be 68e9 4e3e 0258 7cbb
00000120: f46a 40be 6412 9cbe 206d 973e cc03 483e
00000130: e6f9 0abe 33b6 973e 0bbd b4bd e2f0 523e
00000140: b120 803d cccc 173e 78c9 8e3e 3a70 50be
00000150: 0292 cbbc 1be9 863e 7382 22bd 0807 943e
00000160: 9e59 58be a91b 093e 16cd 3cbe 61f7 2a3e
00000170: 507c 453e c3e7 a9be cea3 203e 416f fdbd
00000180: 6de8 5ebe 7de5 aebe f152 2d3d ac85 56bd
00000190: 6773 783e 98fa 9dbe c5d4 89be 850c 503e
000001a0: 25d1 90be 382e c63d 6346 393e 6f29 b93c
000001b0: 8b99 253e c8bd fabd 7fda 4f3e 9b8e 413e
000001c0: e587 33be e33c a5be ba29 7fbd fd17 98be
000001d0: f6da 693e 7a8f a33e cbe2 f23d 7559 85be
000001e0: 2411 363e fb66 14be e631 a63e 9869 b7bd
000001f0: 784a a93e e807 443e c239 5f3e 89a1 81be
00000200: 9aa8 7bbe 6786 2e3e e5c1 6ebc 14cb 0fbe
00000210: 2aad 703d ed6f 1b3e 53ff c1bd aa4a bb3d
00000220: b2b3 a43e b0db 093e 32e5 273e 67a1 003e
00000230: 87da dbbd 196a 59be 2db7 7d3e 6cf1 823e
00000240: 9e76 41be 010b 4f3e 5136 4bbc cb7a 1e3e
00000250: e8ed c93d e92b 45be 5294 df3d ebfb b7bd
00000260: 179c 31be f52d 3e3e ba15 1d3d 53cd 353e
00000270: a924 99be 7a2d 62be 172f bbbd 9ac0 61bd
00000280: 0975 8b3e 85cd b93d 0b5a ae3d 77df fd3d
00000290: 2043 43be 3462 a9be 55d9 713e 50a3 52be
000002a0: 0cfc 1d3e bcd1 813e 7ded c7bd 53e0 8d3e
000002b0: c44b 983d 4ee2 6c3e 9bf4 3cbe 4651 bcbd
000002c0: 9287 593e d334 883d 9080 1d3e 97a1 30be
000002d0: 1397 913e ee33 6b3e c1b2 09be 7237 9db9
000002e0: 41cd 703e d24f 5f3d 5c95 a7be d179 27be
000002f0: deb9 febd 93c1 943d 7ee4 b6bd 17fb 6e3e
00000300: 37ac 503e b8a2 2b3e f672 ac3d 41b4 5dbe
00000310: a5ca ef3d 02af 21bb 7abd 13bd 8f5a cc3d
00000320: 99c6 143e ebe9 94bd ff7e 6cbe af97 0fbe
00000330: 00f3 bb3c 0fe9 df3d ad8c 173e 0640 b1bc
00000340: 4575 4ebe 8493 17be 8fd1 913e c86c 89bd
00000350: ccb1 01be fd8f 2ebe 6a29 dabd 6cba f3bd
00000360: 3a5f ddbd 2e61 92be 4d55 bbbd 1d77 6ebd
00000370: ccbb 5bbe d2fd ea3d fd2c c23d 6d10 8fbe
00000380: c240 15bd 4a8d 3fbe 4b69 d9bd d44b ca3c
00000390: ff54 513e 6be9 483e 4636 a1bd 85b5 48be
000003a0: 30d0 1bbe 111a 6e3e 7f2c 913e bf28 5b3e
000003b0: 270f 04be 4956 483e 0d72 55be 0a23 7a3d
000003c0: dd7e 563e 930f 9ebe f688 a03e 5d58 1d3d
000003d0: a0ed 27be 1949 7b3d 7582 b73d 1919 ed3c
000003e0: 3293 8d3e 670e e13b fd95 a13e 58ba 683e
000003f0: 4bb3 8d3d 8f99 1ebe 3fd4 673e e7ab 1bbe
-0.067205474 -0.13132682 -0.04324481 -0.15328512 0.20750828 -0.063874364 -0.11390185 -0.07531786
-0.2252352 -0.046256315 0.07584019 0.18758807 -0.32369938 0.09813226 -0.26590407 0.0529103
0.05241055 0.27083698 -0.32547495 0.09542124 0.293695 0.3075086 -0.23175603 0.078696355
-0.27396598 -0.3042906 -0.0028349985 -0.05867763 0.3027792 -0.006987911 0.28460732 0.3381823
0.055139426 0.1854813 -0.049850404 -0.28518945 -0.08432674 -0.017130205 -0.23653693 -0.29686198
0.1921241 0.14862214 0.080564536 -0.31559157 0.2667601 -0.25802892 0.18962993 -0.2509955
-0.16376854 -0.31838977 -0.058470502 0.14259891 -0.26325902 -0.087276906 0.21962053 0.14782996
-0.1912445 0.08412466 -0.14926794 -0.124311134 0.103794165 -0.16906917 -0.3103359 0.018178435
0.03390102 0.019074814 0.20424183 -0.010785732 -0.2248827 -0.1647765 0.20206225 -0.0038504605
-0.187908 -0.3048278 0.29575443 0.19532698 -0.13571891 0.29631194 -0.088251196 0.20599702
0.062562354 0.14824218 0.27888083 -0.20355311 -0.024849895 0.2634972 -0.039675187 0.28911614
-0.21127936 0.13389458 -0.18437609 0.1669593 0.19285703 -0.33184633 0.15687487 -0.123747356
-0.21768351 -0.3415946 0.042315427 -0.052373573 0.24262773 -0.3085525 -0.26920143 0.20317276
-0.28284565 0.09676784 0.18093257 0.022602765 0.16171853 -0.12243229 0.20298193 0.18902056
-0.17532308 -0.32273015 -0.062295653 -0.29705802 0.22837433 0.319454 0.118596636 -0.26044813
0.17779976 -0.14492409 0.32459944 -0.08955687 0.33064628 0.19143641 0.21799377 -0.25318554
-0.24576035 0.17043458 -0.014572595 -0.14042312 0.058758892 0.15179415 -0.09472527 0.091451004
0.32168347 0.1346271 0.16396025 0.1256157 -0.1073504 -0.2123188 0.24776907 0.25574815
-0.18892905 0.20219041 -0.012403087 0.1547653 0.0985983 -0.19255032 0.10916962 -0.089835964
-0.173447 0.18572219 0.0383508 0.17754106 -0.29910782 -0.2208766 -0.09139841 -0.05511532
0.27237728 0.09072403 0.08513268 0.12396138 -0.19068575 -0.33082736 0.23618062 -0.20570111
0.1542818 0.25355327 -0.09762094 0.27710208 0.07436326 0.23133203 -0.18452685 -0.09195189
0.21243122 0.066507004 0.15381074 -0.17249142 0.28435573 0.22969028 -0.13447095 -0.00029986684
0.23515798 0.054519482 -0.3273114 -0.16355063 -0.12437795 0.07263484 -0.089303 0.2333797
0.20378195 0.16761291 0.084203646 -0.21650793 0.11708573 -0.0024670963 -0.03606937 0.0997821
0.14528884 -0.07271179 -0.2309532 -0.14022706 0.02294302 0.10933124 0.14799757 -0.021636974
-0.20161922 -0.14802366 0.28480193 -0.067102015 -0.1266548 -0.17047115 -0.1065243 -0.119007915
-0.10809179 -0.28589767 -0.09147129 -0.058219064 -0.21458358 0.11474194 0.09481237 -0.2794222
-0.03643871 -0.18706241 -0.10615786 0.02469436 0.2044258 0.19620292 -0.0787168 -0.19600494
-0.15216136 0.23252131 0.2835426 0.21402262 -0.12896405 0.19564165 -0.20844288 0.061068572
0.20946832 -0.30871257 0.31354493 0.038414348 -0.1639924 0.06134901 0.089604296 0.028942632
0.27651364 0.006868172 0.31559744 0.22727334 0.06918963 -0.15488265 0.22639559 -0.15202294

bn1.weight f4 [64]
00000000: e403 803f 663b 813f 9024 813f e943 803f
00000010: a0c6 7e3f 18ed 803f a720 803f 7b30 7e3f
00000020: 9bb2 803f 77da 7e3f b03c 813f 235e 803f
00000030: f733 7f3f eb33 7e3f 4351 803f fb91 803f
00000040: a939 803f 1c0f 813f 5fb3 7e3f d83d 7e3f
00000050: ccd4 7d3f 598e 803f 9ecf 803f f587 803f
00000060: 0b43 813f 3fd1 7f3f ebff 7e3f ec91 803f
00000070: 25af 7e3f 1557 7e3f df62 813f 958d 7e3f
00000080: 50dd 7f3f 92a8 7f3f b0c6 7e3f 21bf 803f
00000090: 2add 7f3f 1c8f 7e3f 2a6a 7e3f 52d9 7f3f
000000a0: 2e0d 803f 34b8 803f f888 803f 1361 7e3f
000000b0: 38e7 7d3f cd03 813f 297f 803f 383a 813f
000000c0: 819f 803f 70c6 803f 3dc1 7e3f 9a2c 7f3f
000000d0: bea8 803f 71bd 7e3f 49f4 7f3f c151 7e3f
000000e0: c1e6 7f3f f92a 803f 0355 803f 31f4 7d3f
000000f0: 14c8 7d3f 1238 813f cdd2 7e3f 3744 813f
1.0001187 1.0096252 1.0089283 1.0020725 0.9952183 1.0072355 1.0009965 0.99292725
1.0054506 0.995521 1.0096645 1.0028728 0.9968867 0.9929797 1.0024799 1.004455
1.0017596 1.0082736 0.9949245 0.99313116 0.9915283 1.0043441 1.006336 1.0041491
1.0098585 0.9992866 0.9960925 1.0044532 0.99486 0.99351627 1.0108298 0.9943479
0.9994707 0.9986659 0.99521923 1.0058328 0.99946845 0.9943712 0.99380744 0.9994098
1.0004022 1.0056214 1.00418 0.99366874 0.99180937 1.0079285 1.0038806 1.0095892
1.0048677 1.0060558 0.9951361 0.9967743 1.0051496 0.99507815 0.99982125 0.99343497
0.9996148 1.0013114 1.0025944 0.9920073 0.9913342 1.0095236 0.99540406 1.0098943

bn1.bias f4 [64]
00000000: 91c0 c13a 1a1e 2c3c 65ea 183c 4470 e93b
00000010: ec22 e9ba 8913 f33b a7b3 0b3c 5920 92b9
00000020: c0d6 0d3c a775 15bc f769 1f3c 0d9f 01bc
00000030: eee2 163c d379 6d3a 078d 11bc 6b55 13bc
00000040: 0a5f 303c e05a 2b3c 2ca3 153c 8f9a e6bb
00000050: 2050 11bc 4c86 bbbb 9fc6 083c 5bb3 a33b
00000060: cd73 0c3c e8ba 06bc a97a bfbb eaf3 013c
00000070: bc26 ee3b 7471 58bb 146a 2b3c a8bc 0c3c
00000080: 5bcf e5bb 5561 7b3b e086 b0bb ca11 133c
00000090: f1c3 0b3c a69f 3cbb 8fe7 bebb 4cf7 a53b
000000a0: f2f4 c43b dfc3 003b da90 063c b703 8a3b
000000b0: 033d a3bb 0e4c 013c 3054 f23b 6ad9 1a3c
000000c0: 4375 a0bb 082f b9ba e888 313c a4b9 70ba
000000d0: d487 933b fe88 35bb c872 323b 7dbb cd3b
000000e0: a3a4 263c 0b71 653b adcc f6ba a624 a9bb
000000f0: 3532 09bc e551 c83b 010e abbb 3ded 1d3c
0.0014782121 0.010505224 0.009333228 0.007123979 -0.0017786897 0.0074181003 0.008526719 -0.0002787139
0.008657157 -0.009122289 0.009729854 -0.007911456 0.009209378 0.0009058986 -0.008883721 -0.008992533
0.010764847 0.010458678 0.0091331415 -0.007037468 -0.008869201 -0.0057227965 0.008348136 0.004995746
0.008572531 -0.008223273 -0.0058434797 0.007931689 0.007267801 -0.0033026608 0.010462303 0.008589901
-0.007013244 0.0038357575 -0.005387172 0.008976409 0.008530603 -0.0028781681 -0.005825944 0.0050648805
0.006010645 0.0019647998 0.008213246 0.0042118686 -0.0049816384 0.007891668 0.00739529 0.00945125
-0.004896791 -0.0014128396 0.010835864 -0.0009182936 0.004502276 -0.0027700062 0.002722906 0.006278454
0.010171088 0.0035010006 -0.0018829309 -0.0051618395 -0.008373787 0.006113278 -0.0052201753 0.009639082

bn1.running_mean f4 [64]
00000000: e99b fec0 a0c6 933f e6a4 8bc0 4ba2 1641
00000010: 91fa 49c0 4979 4fc1 b40d 97c0 c583 683f
00000020: b2bf 8240 99ec f540 0abe f5c0 b96a fdbf
00000030: 3376 21c0 7b2d 3b41 5308 eabf 0433 4641
00000040: 37a1 86bf d812 883f 2dbe c53e 7099 d940
00000050: 2ea3 4a3f 01d1 de40 36e4 e13e e918 02c1
00000060: 2462 28c1 05e2 2dbf 3d0d f040 8545 2a41
00000070: d626 00c0 7710 7040 3f7e 23c1 1cde e6bf
00000080: 9252 9a40 21cf 0741 cd91 e8c0 100d 9340
00000090: fec2 bb3f b99e d440 5624 39c1 6681 53c0
000000a0: f34a 0fc0 3019 6dbf 8af9 ba40 eb17 9940
000000b0: 8eed 1a40 b145 46c1 9feb 1e40 1994 34c1
000000c0: b061 5240 74c4 d8c0 1fa7 8540 6110 bdc0
000000d0: 5d4d 0540 bd07 6b3f 4227 b640 149a 4741
000000e0: f43e ec3e f2f8 08c1 f221 a240 6098 8740
000000f0: 345b 0141 8de3 22c0 7369 fac0 09ef 1ac1
-7.956532 1.154499 -4.363879 9.414622 -3.1559184 -12.967111 -4.7204227 0.90826064
4.0859003 7.6851315 -7.679448 -1.9798194 -2.5228393 11.698604 -1.828379 12.387455
-1.0517949 1.0630751 0.38621655 6.79998 0.7915524 6.963013 0.44119424 -8.131082
-10.52396 -0.67923003 7.501616 10.641973 -2.0023704 3.751005 -10.218322 -1.8036532
4.8225794 8.488069 -7.267798 4.5953445 1.4668882 6.6443753 -11.571371 -3.3047729
-2.2389495 -0.9261656 5.8429613 4.7841697 2.4207492 -12.3920145 2.4831312 -11.286157
3.2872124 -6.773981 4.1766505 -5.9082494 2.0828469 0.9180868 5.692292 12.475117
0.4614178 -8.560778 5.0666437 4.2373505 8.084766 -2.5451386 -7.825372 -9.683358

bn1.running_var f4 [64]
00000000: 7217 ca43 91c2 6742 93dc 8a43 47cd 4544
00000010: b122 0343 61c5 9344 90f1 be43 22e1 c341
00000020: 9c23 6843 ad8f e543 627a 1444 2089 9c42
00000030: e5ff d842 28d2 7144 d793 4343 3b0a 8944
00000040: 2365 5a42 4747 0e42 9a6b 5242 71c9 ab43
00000050: 69c1 3e43 83f0 ba43 22fc 6e41 4675 f243
00000060: 9b52 4b44 4d9b dc41 0bfc c143 f198 5944
00000070: 620f 4642 239e f542 3e45 3844 6726 9842
00000080: 7090 3043 6f73 ea43 59a4 bd43 5e34 8f43
00000090: d4a7 4d43 d0f0 be43 6693 6e44 b853 3043
000000a0: af22 bb42 4c7c a342 e4b5 b143 8e82 4243
000000b0: 2a93 6a43 6129 8a44 c7d3 6f43 55fd 9b44
000000c0: d19d d942 acd1 0544 1b94 8f43 df02 e543
000000d0: f254 f841 9014 5c42 3059 e543 7ca1 9344
000000e0: ca40 bc41 75e6 0244 e41d 4843 c8f9 1643
000000f0: f459 f943 507e 8542 f161 0044 2bf4 2844
404.18317 57.940006 277.72324 791.20746 131.13551 1182.1681 381.8872 24.484928
232.1391 459.12247 593.91223 78.26782 108.499794 967.2837 195.5775 1096.3197
54.598766 35.569607 52.60508 343.57376 190.75551 373.879 14.936556 484.9162
813.2907 27.57583 387.9691 870.3897 49.515022 122.80886 737.0819 76.075005
176.56421 468.90182 379.28397 286.40912 205.65558 381.88135 954.3031 176.32703
93.56774 81.74277 355.42102 194.50998 234.57486 1105.2931 239.82726 1247.9166
108.808235 535.2761 287.15707 458.02243 31.041477 55.02008 458.69678 1181.0464
23.531635 523.6009 200.11676 150.97571 498.70276 66.746704 513.53033 675.8151

resblock1.conv1.weight f4 [128, 64, 3, 3]
00000000: 8ae1 323d d9ba d2bc 3f5d 91b9 c685 af3b
00000010: 57b0 323b 62e3 eb3c d468 003d 4ec5 0bbc
00000020: 8f60 2cbd 42aa 183d 8042 2cbd fe87 fb3c
00000030: 1314 15bd 3e0e a53b 2200 afba 1f5f fdbc
00000040: 85c9 d8bc 632d 273c 64bf 763c 4502 91bc
00000050: aed6 dabc f239 bb3c 56e2 663b 0920 38bd
00000060: c093 c2bb 5951 12bd 90a9 2dbc b725 a2bc
00000070: 62ab 303c 38ec 063d 8fb4 e8bc 678a 073c
00000080: 90b8 9bbc ea82 593c 8d8c 3f3b c6f7 36bd
00000090: 4ac5 12bd dee7 e6bc 87e6 cabc 54a8 bebc
000000a0: 7da2 dbbc 34fa cd3c 0925 2ebc 820e 4abb
000000b0: c88d 2a3d 20ac a33a 78c2 c03c 5ee4 d73c
000000c0: 945d fbba eb41 95bc a441 b1bb 5654 71ba
000000d0: a32b b2bc 9831 b4bc 3097 823c 3115 33bc
000000e0: 44d1 b8bc bb64 28bd b177 83bc 4567 b0bb
000000f0: a429 87bb ed9b a63b 9cf9 20bd da2a 0ebd
00000100: 408b 083d 3f35 2bbc 37ee a23c 5ca3 b63c
00000110: 917f 25bd 09ca 013d 2376 8fbb 68bd e63b
00000120: 6d37 0fbc 6291 2abd fb8a a23c 3ab1 b43c
00000130: 76ae 2fbd 416d fa3c 61e3 8eba a934 013d
00000140: 3f8a 02bd 2c6b 18bd 3456 a53c 0450 c03c
00000150: 5b63 c7bc bb99 24bc d0fa a6bc d68a 9c3c
00000160: 4d72 cc3c b8ac 803c 665c bd3a 9d3c 243c
00000170: 4e90 78bc 25e2 a43c 38f3 0ebc 0287 35bd
00000180: dfbe 8e3b 5086 00bd c908 103d 9110 03bd
00000190: d1b2 00bd a702 4bbc f1e8 883c 8f6b 08bd
000001a0: 4f7c d93b 064c 2a3d c5ed 28bd 6440 e93c
000001b0: 7d11 07bd 428c aa3c b757 55bb e5d9 debb
000001c0: a344 e53b f5b8 e03b ba93 fbbc c27b 88ba
000001d0: 86c3 b53c cde6 e43c 8ef8 32bb cfbf b3bb
000001e0: 2121 24bd 2039 28bd a054 033d 9a3e 07bd
000001f0: d8e5 a0bc 1f6a 563c dd0c a23c 4e55 31bd
00000200: 806b 673c b24a dbbc 4e49 183d 478b 65bc
00000210: 6cd9 20bd b977 23bd 6926 173d b0e7 ee3b
00000220: 1d59 b4bc 25ef 95bc 4f16 063c 0931 b63b
00000230: 688b 183b e826 633c 7a08 11bd 9259 933c
00000240: 57cc f53c 669d 13bd 90a1 05bd 3b24 56bc
00000250: 041a 0f3d d116 a33c ca8b 923c f7d5 9dbc
00000260: f70e a6bc 9071 c03b 489d aebc 0b36 ecbc
00000270: ca2d 0ebd ef9f 76bc 9727 db39 a5e7 dbbc
00000280: 64f7 02bd b638 9bbc 1e9c 043d 55bd c73c
00000290: 4bb2 063d eb38 f1bc 1a72 b3bc caee 0fbd
000002a0: 10c3 1cbc 3b29 08bd 39a4 c73c 8d82 a6bc
000002b0: 4561 173d 709c 9f3c e8c9 03bd 5949 b03b
000002c0: a35a d33c 15fb 90bc ee45 01bb 1674 823c
000002d0: ca52 a6bb df5e 0e3d 9ff9 8bbc bd97 17bb
000002e0: 9006 da3c 7e44 3bbd fbee d9bb 1d00 c0bc
000002f0: 39b7 7cbb a976 b6bb 342a e0bc a830 ab3c
00000300: a2aa 2fbd 718b b9bc 8f19 e9bc dfff 26bd
00000310: ac63 833c 367c 183d 3145 4bbc 82e4 0c3d
00000320: 5cd5 253d 86e7 c03c d8f1 0bbd 3223 56bc
00000330: 59e0 eebc af12 7c3c 3d4c a8bc 34f7 7f3c
00000340: c736 9fbc 1f0e 06bc b480 e43c 4c1d b5bc
00000350: ae0e c9bc ed06 6fbc 85dd 6ebc 9fd2 d53c
00000360: 2d9d e1bb 8a84 d53c 5de9 ba3c 442c 603b
00000370: a407 493c 317d 3c3c 9f1f 1c3c 6977 623b
00000380: 0510 a9bc a29a bd3c eabb a53c 04e2 893c
00000390: fa6f 873c 33e2 583c 17c1 be3c 06ad f1bb
000003a0: a0c9 01bc 9e28 54bc b69d e93c 9331 c9bc
000003b0: 5109 943a 9dd2 7ebc d290 77bc 3e11 44bc
000003c0: cb9f 7b3a bcf0 d23c ce9f 23bd 8704 343c
000003d0: a139 2eba 9adb a4bc 77f9 fabc f940 26bd
000003e0: 18c1 6cbc 496a 4c3c 1de6 583a c1a0 babc
000003f0: fe56 15bd fcdd 9c3c e49e 16bd ecf2 1ebd
0.043672122 -0.025723862 -0.0002772603 0.005356523 0.0027265751 0.028794948 0.031349972 -0.008530928
-0.042084273 0.037271746 -0.042055607 0.030704495 -0.036396097 0.005037098 -0.001335148 -0.030929146
-0.02646328 0.010203692 0.0150602795 -0.017701278 -0.026713695 0.022854779 0.0035230122 -0.044952426
-0.0059380233 -0.03572211 -0.010599509 -0.019793374 0.010783048 0.03294012 -0.02840641 0.008272744
-0.019008905 0.013275841 0.0029228062 -0.04466989 -0.03583268 -0.028186735 -0.024768127 -0.023273624
-0.026810879 0.02514372 -0.010628947 -0.0030831401 0.04163912 0.001248721 0.02353023 0.026354011
-0.0019177669 -0.018219909 -0.0054094363 -0.00092059874 -0.021749323 -0.021996304 0.015941232 -0.010930345
-0.022560723 -0.04111169 -0.016048284 -0.0053834044 -0.004124837 0.005084506 -0.039300546 -0.034708835
0.033335924 -0.010449707 0.01988898 0.022294693 -0.04040486 0.031686816 -0.0043780967 0.007041622
-0.008741242 -0.041642554 0.019841662 0.022057164 -0.04289099 0.030569674 -0.0010901504 0.03154436
-0.031870123 -0.037211582 0.020182706 0.023475654 -0.024339369 -0.010046418 -0.020383269 0.01910917
0.024956847 0.015707359 0.0014447093 0.010024217 -0.015171124 0.020127365 -0.00872498 -0.044318207
0.0043562497 -0.03137809 0.03516463 -0.03199822 -0.031420533 -0.012390769 0.016712638 -0.0333057
0.006637133 0.041576408 -0.04124238 0.028473087 -0.032975662 0.020818833 -0.0032553503 -0.0068008774
0.0069967075 0.006857986 -0.03071009 -0.0010412859 0.02218796 0.027942086 -0.0027308795 -0.005485512
-0.040070657 -0.041070104 0.032063127 -0.033018686 -0.019640848 0.013086825 0.019781524 -0.043294244
0.014124751 -0.026769016 0.037179284 -0.014010257 -0.03926985 -0.0399091 0.036901865 0.007290803
-0.022015149 -0.01830251 0.00818403 0.0055600447 0.0023276452 0.013864256 -0.035408475 0.017987046
0.030004663 -0.03603878 -0.03262478 -0.013070161 0.03493692 0.01990834 0.017888922 -0.019267065
-0.020270808 0.0058729127 -0.021315232 -0.028834363 -0.034711637 -0.01505278 0.00041800432 -0.026843855
-0.03197421 -0.01894794 0.032375447 0.024382273 0.032884877 -0.029446086 -0.021904994 -0.035139836
-0.009567991 -0.033242445 0.0243703 -0.020325923 0.036957998 0.019483775 -0.032174975 0.0053798375
0.025800055 -0.01769785 -0.001972552 0.015924495 -0.005075787 0.034758445 -0.017086802 -0.0023131215
0.026614457 -0.045719616 -0.006650803 -0.023437554 -0.0038561358 -0.0055683446 -0.027363874 0.020897225
-0.042887338 -0.022649499 -0.02845457 -0.04077136 0.016038738 0.03722783 -0.012406633 0.03439761
0.04048668 0.023547899 -0.034166187 -0.013069915 -0.029159712 0.015385314 -0.020544166 0.015622903
-0.0194353 -0.008182078 0.027893402 -0.022108696 -0.024543133 -0.014589054 -0.014579182 0.026101409
-0.006885192 0.026064176 0.022816354 0.0034206072 0.012269888 0.011504457 0.009529023 0.0034556037
-0.020637522 0.023145024 0.020231206 0.016831405 0.016532887 0.013237524 0.023285432 -0.0073753623
-0.007921606 -0.012949137 0.028517585 -0.024559772 0.001129428 -0.015553144 -0.015110211 -0.0119670015
0.0009598701 0.025749557 -0.039947324 0.0109874075 -0.00066461606 -0.020124245 -0.030636532 -0.040589307
-0.014450334 0.012476512 0.00082740356 -0.022781732 -0.036459915 0.01914882 -0.036772624 -0.038805887

resblock1.bn1.weight f4 [128]
00000000: 9391 803f 137d 803f ee81 7e3f ac85 7e3f
00000010: 7965 803f 4b2e 7f3f 466c 803f f164 803f
00000020: 8a91 7e3f 0b71 803f b895 7e3f bc20 813f
00000030: 25a5 803f c83e 813f 2f42 7f3f a34d 803f
00000040: 6688 7e3f f651 7e3f a4d3 7f3f 9865 7e3f
00000050: f8fd 7e3f 25b5 803f e065 7f3f 4923 7f3f
00000060: 9274 803f cabe 7f3f 2d70 7f3f 8897 7d3f
00000070: bf39 803f 2141 813f cb53 7f3f 189d 7f3f
00000080: ff83 7f3f 3e42 813f cb70 803f 526e 803f
00000090: f855 803f 576a 7e3f f674 803f 49d7 803f
000000a0: cba7 7e3f de98 7e3f 6ddc 7e3f 29f5 7e3f
000000b0: 5c61 803f 984f 803f 334d 7f3f ad44 813f
000000c0: fc6b 7e3f fd75 803f f7d8 7e3f 0536 813f
000000d0: 3b98 803f 2983 803f 543c 803f 108d 7f3f
000000e0: 6850 7e3f dceb 7e3f e6ae 7e3f 52f2 7e3f
000000f0: a4d7 7e3f 6232 813f cf1c 7f3f 5d72 7e3f
00000100: 6b59 7f3f 4469 7e3f 04c5 7f3f 20c9 803f
00000110: 7b91 803f 8380 803f b2d6 7f3f 6749 803f
00000120: 617f 803f 02e6 7e3f 6a50 813f 654b 7e3f
00000130: 8c9c 7e3f 20d6 7e3f 5230 7f3f 2d70 803f
00000140: 585b 7e3f aa75 7e3f a445 803f d5b0 7e3f
00000150: 98c6 7e3f db03 7f3f 719e 803f 7801 803f
00000160: 345c 7f3f 71ec 7e3f 9cc4 7e3f 8df4 803f
00000170: e0d1 7e3f 4ed9 7d3f dfcf 7e3f 0964 7f3f
00000180: 730f 7f3f 5efa 7e3f 2ece 803f b9b6 7f3f
00000190: 3af4 803f 56ab 803f e3f0 7d3f 1b1f 7f3f
000001a0: a7a8 7e3f b0f1 7f3f 0d1c 7e3f 661c 803f
000001b0: 3671 803f b192 803f 8efa 7f3f f408 7f3f
000001c0: 5610 803f 5dc3 7e3f 9e44 813f 12c3 7f3f
000001d0: cd93 7e3f be42 803f 3a67 7f3f 4920 803f
000001e0: acf4 7e3f 08cf 803f f005 7e3f c658 7f3f
000001f0: faba 7e3f 6d70 7e3f 76e3 803f 1cec 803f
1.0044426 1.003817 0.99417007 0.9942272 1.0030967 0.9968001 1.0033042 1.0030805
0.99440825 1.0034498 0.994472 1.0088115 1.0050398 1.0097284 0.99710363 1.0023693
0.9942688 0.9934381 0.9993231 0.9937377 0.99606276 1.0055281 0.99764824 0.99663216
1.0035574 0.99900496 0.9978054 0.99059343 1.0017623 1.0098001 0.9973723 0.9984908
0.99810785 1.009834 1.0034422 1.0033667 1.0026236 0.9938101 1.0035694 1.00657
0.9947478 0.99452007 0.99555093 0.99592835 1.0029712 1.002429 0.9972717 1.0099083
0.9938352 1.0036007 0.9954981 1.009461 1.0046457 1.0040027 1.0018411 0.9982462
0.9934144 0.9957864 0.99485624 0.995885 0.9954779 1.0093501 0.99653333 0.99393255
0.99745816 0.9937937 0.99909997 1.0061378 1.0044397 1.0039219 0.99936974 1.0022401
1.0038873 0.99569714 1.0102665 0.9933379 0.9945762 0.9954548 0.99683106 1.0034233
0.9935813 0.9939829 1.0021253 0.99488574 0.9952178 0.9961526 1.0048352 1.0000448
0.99750066 0.9957953 0.9951875 1.0074631 0.99538994 0.99159706 0.99535936 0.99762017
0.9963295 0.9960078 1.0062921 0.9988819 1.0074532 1.0052288 0.9919569 0.9965684
0.99476093 0.9997816 0.9926155 1.0008667 1.0034549 1.0044767 0.9999169 0.99623036
1.0004985 0.9951685 1.0099065 0.9990703 0.99444276 1.0020368 0.99766886 1.0009853
0.9959209 1.0063181 0.9922781 0.9974483 0.99504054 0.993903 1.0069416 1.0072055

resblock1.bn1.bias f4 [128]
00000000: 4397 1a3c 319a 043c 8450 e5bb 574d fbbb
00000010: 0b0a eb3b 2d4c 08ba b79a d53b 086e 3fbb
00000020: b7fd a1bb 5c18 0d3c 7fa1 49bb 26bc 143c
00000030: 5b74 523b e570 153c 4126 953b c5ac 47ba
00000040: b8d2 92bb 21ca a9bb 4dde 4f3b 52fc bbbb
00000050: e034 fa3b 3af4 f03b 55e3 b23b 56a4 bd3b
00000060: 50dd 103c 7677 a339 8d8b 0b3b 0594 a3ba
00000070: f9ed 6139 f78a 253c 4da1 e2bb 70be 3fbb
00000080: 0834 c9bb cc66 1a3c 80fb 243c a8e9 083c
00000090: 6a2f bf3b 9ec5 d9bb 392f 5c3b 69d0 e03b
000000a0: b424 ddba 7cfb f139 51aa 0cbc cef9 3737
000000b0: 6844 203c a1b6 b13b 398c 04bc ef15 233c
000000c0: 0fc9 7d3b 23f4 a53b f293 d3bb 1cc9 203c
000000d0: 7247 af3b 663d 2ebb 00a8 d4bb deb0 cebb
000000e0: 339a a23a eb10 cc3b be84 17bb 9775 113c
000000f0: d19b 99ba 27ea 233c def8 123c 6bd9 8cbb
00000100: ae73 d13a e795 fdbb 5a83 ebba 9a6c 1b3c
00000110: 17ff b23b 8536 7f3b 77f6 e63b 93b0 a5b9
00000120: 42ec ed3b d6b2 0d3c a004 ba3a 0e92 233c
00000130: f390 71bb 9829 71bb 0c3c 10b9 7e67 14ba
00000140: b4c7 0bbc b27d a6bb 2132 4a3b d2ad 123c
00000150: 51a9 cd3b a93b d9bb 522d eb3b f5c8 fe3b
00000160: 2227 2b3c 7b8b 2f3b 9143 92bb a268 883b
00000170: f875 b73b f44b 11bc 6450 e6bb a07d c6bb
00000180: 3b0a 143c eb9a 04bb 6b38 1f3c 68c8 b63b
00000190: 6f46 2e3c 311e 8bbb 31de e7ba 0606 06bb
000001a0: 2fb3 95bb b226 063c 2951 dabb 2b70 d33b
000001b0: ef31 913b 1139 033c fd82 23bb 1425 62ba
000001c0: 95ff 1f3c f34f 5abb e8e1 223c d440 8339
000001d0: 31c6 a1bb ce06 e3bb 65bd 6eb9 acb9 b83b
000001e0: ce74 00bc 0c69 f73b 7a9c 85bb ae88 16bb
000001f0: bf1b 43bb 4647 f5bb 9b4c 5e3b fc7d cf3b
0.009435478 0.008093403 -0.0069981236 -0.0076691317 0.007172828 -0.00051993394 0.0065186876 -0.002920987
-0.0049435752 0.008611765 -0.0030766425 0.009078061 0.003211281 0.009121154 0.0045516794 -0.0007616992
-0.004480686 -0.0051815663 0.0031718195 -0.005736866 0.0076356977 0.007353333 0.005459229 0.0057874126
0.0088418275 0.00031178788 0.0021292896 -0.0012480026 0.00021546324 0.010103933 -0.006916201 -0.0029257797
-0.006140236 0.009423923 0.010069728 0.008356489 0.0058345096 -0.0066458723 0.0033597483 0.006860782
-0.00168719 0.00046154473 -0.0085855285 1.0965812e-05 0.009781934 0.0054233824 -0.008090072 0.00995396
0.0038724577 0.0050645038 -0.0064568454 0.009813573 0.005349093 -0.002658689 -0.0064897537 -0.0063077053
0.0012405574 0.0062276027 -0.0023119892 0.008878133 -0.001171941 0.010004557 0.008970467 -0.004298379
0.001597991 -0.007738817 -0.0017968223 0.009486342 0.005462538 0.0038942408 0.007048424 -0.0003160281
0.00726083 0.008648595 0.0014192052 0.009983553 -0.0036860078 -0.0036798473 -0.0001375528 -0.00056611735
-0.0085315 -0.005080902 0.0030852633 0.008952575 0.0062762876 -0.0066294265 0.0071770335 0.007775421
0.010446342 0.0026786018 -0.004463621 0.004162864 0.00559878 -0.008868206 -0.0070286263 -0.006057456
0.009035642 -0.002023394 0.009718041 0.0055780895 0.01063691 -0.0042455425 -0.001769012 -0.0020450368
-0.0045684795 0.008187937 -0.006662507 0.0064525804 0.0044310014 0.008009211 -0.0024949901 -0.0008626741
0.009765525 -0.0033311814 0.009941556 0.00025034568 -0.0049369563 -0.0069283014 -0.00022768004 0.005637368
-0.007840348 0.0075503644 -0.0040774914 -0.002296965 -0.0029771177 -0.007485303 0.0033920172 0.006332157

resblock1.bn1.running_mean f4 [128]
00000000: 098b f0be 3501 8c3e 8282 aa3e 9097 81be
00000010: 591c 083e 1f91 1bbd d548 18be ac8d 983e
00000020: 12ec b9be 53b8 0a3e 421f 09bd fac0 ffbc
00000030: 087e 86bd bde5 d53a 4761 42bd dd37 2fbc
00000040: 3e32 7fbe 6c06 39be c81d 95be f89b 4fbc
00000050: fa76 4dbe 448a 6cbe 05ed d3be 7a48 bdbe
00000060: 2231 aebd 1d34 76be 2ecb d5be eff5 623e
00000070: ebf6 883e ab50 10bd 9796 ce3d 1e0f 953c
00000080: 181c 663e 6cc6 833e 709d ff3b aff0 3d3e
00000090: 6ea7 67bd b276 043f 9610 693e b019 00bc
000000a0: 80a2 99be 0b3d 63be da41 58be cda1 ecbd
000000b0: 43f1 4ebe 6e99 a93e f579 a93e 5c00 dabd
000000c0: a907 263d be11 023e 8d2a 173d 3f52 98be
000000d0: 2ba7 ef3d f253 563e 96ff a83e 1be9 a63e
000000e0: 5da0 ee3d f901 a8be dff6 043d d2bf 3ebd
000000f0: e396 adbe 207d 66be 8aa0 5fbe adb4 c3be
00000100: be02 713e f3cf 563e 0278 4abe 9422 21be
00000110: 1435 10bd 7783 6c3e 354d 21be 3aeb d9be
00000120: c270 afbe 83c2 a8be 198a 8fbe b8d2 443e
00000130: 53ca 24be 2da9 afbe 5390 d53e 24fb 1c3f
00000140: dff2 e93d ad4e 85be 44b8 aebe 1da8 a9be
00000150: 9641 9c3c 6bc2 c8be f43e a2bb 2ccc 18bd
00000160: adf7 493e 489a 83be f5b5 b8be 3c0a bfbe
00000170: 8a8c cebd 041a 94be ce4b 39be 7976 ea3d
00000180: 8173 ae3d 3333 7dbe 65d7 9ebe eb28 9a3e
00000190: 341c c9bd 7ee9 9f3e 8d1d 9c3d 9614 d3bd
000001a0: 2e42 573e 12b5 a03e d8d4 a73e 19d0 3fbe
000001b0: 5b63 b23d 2357 4e3e 5255 a13e bf68 9e3e
000001c0: d212 bdbd 2336 2ebd 73c3 4bbb 00e8 203e
000001d0: 0284 b93d e491 283e fa1f e73e 971a af3e
000001e0: 0a74 fe3d e717 363e adff b33e 14a8 5f3e
000001f0: f808 453b 8bb6 973e 8d05 2c3e 7f94 1abd
-0.46981075 0.2734467 0.33302695 -0.25310946 0.13292064 -0.037980195 -0.14871533 0.29795587
-0.3631292 0.13546877 -0.033477075 -0.031219948 -0.06567007 0.0016319078 -0.047456052 -0.010694471
-0.2492151 -0.18068856 -0.29124284 -0.012671463 -0.20064917 -0.23099619 -0.4139177 -0.36969358
-0.08505465 -0.24043317 -0.41756576 0.22164129 0.26750883 -0.03523318 0.100873165 0.018195685
0.22471654 0.2573732 0.0078007504 0.18548845 -0.056556158 0.51743615 0.22760233 -0.007818624
-0.3000679 -0.22191255 -0.2111887 -0.115542985 -0.20209222 0.3312487 0.33100858 -0.106446
0.04053465 0.1270208 0.036905814 -0.2975025 0.11701807 0.2093046 0.33007497 0.3259972
0.116516806 -0.32814005 0.032461997 -0.046569653 -0.3390418 -0.22508669 -0.21838585 -0.38223782
0.23536202 0.20977764 -0.19772342 -0.15735847 -0.03520687 0.23097025 -0.15752108 -0.42562276
-0.34265715 -0.329609 -0.28035048 0.19221008 -0.16092806 -0.34308758 0.41711673 0.6132071
0.11423277 -0.26036587 -0.3412496 -0.33136073 0.019074243 -0.3921083 -0.0049513523 -0.03730409
0.19723387 -0.25703645 -0.36076322 -0.37312496 -0.100853994 -0.28926098 -0.18095323 0.11448378
0.08518124 -0.24726562 -0.31023708 0.30109343 -0.098198324 0.31232828 0.07622824 -0.10306661
0.2102134 0.31388146 0.32779574 -0.18731727 0.08710357 0.20150428 0.31510407 0.3093929
-0.09232105 -0.042532098 -0.0031091839 0.15713501 0.090583816 0.16461903 0.45141584 0.34199974
0.124244764 0.17782556 0.35156003 0.2184146 0.003006516 0.29631457 0.16798992 -0.037739273

resblock1.bn1.running_var f4 [128]
00000000: c76c 713f d60c b63f aa51 6f3f 7045 3a3f
00000010: 828c 0b3f 155c 363e f409 4e3e 0257 4e3f
00000020: 4b04 573f f225 653f d13c f33d b6ce 5f3e
00000030: 7255 b93e c74e cc3d 7e14 253f de7e b13e
00000040: a337 163f ea5c 3f3f 0a4e 853f fd2b b63e
00000050: c936 b93e 8649 8f3f c72f e83d a86c 0a3e
00000060: 915a 1a3f cae8 443f df64 583e 1cde 113f
00000070: 2356 573e f71f f43e dc20 803f 45c1 213e
00000080: e6bd 223f ca99 233e 42e7 cb3e bc5d 653f
00000090: a7bc 613e 7be9 3c3f bcf0 403f b97b c63e
000000a0: 2455 6f3f c7bb 653e f073 ec3e abe8 7f3f
000000b0: 25a9 9e3e 615a 983e 308b 383f 5821 6f3e
000000c0: 17ff 823e 6668 353f e640 ea3e 5082 e83d
000000d0: 484b b83e 4acf bd3e 5d21 a83f fb64 9b3f
000000e0: fc4e dd3e 4660 7e3f fc35 a23e a229 363f
000000f0: c0e8 e93f 118a ab3f 3d82 943f bdef be3f
00000100: 3a28 443f 5187 4b3e af69 ee3d f07c 703e
00000110: cf33 8a3f fd2a 813f 4698 aa3f e972 ac3d
00000120: 4077 843e 47fd 8f3f c351 b43d de34 333f
00000130: d2dd a73e 60ca 363e fc64 d63e 5dd4 a43f
00000140: 159d 413e 74e6 6e3e 6b5f 893f e10f 283f
00000150: 7c40 903e 978e a53e fd03 ec3e df90 0a3f
00000160: 1cd1 883f 2534 073f 285b 8f3f 8157 a33d
00000170: 4416 cf3d fc9c 263e 26dc 1d3f 1351 883e
00000180: a381 8c3e 8b7b 183f 0815 273e d1a0 843f
00000190: 1ded 053e a615 353f 90f8 643f f476 9b3e
000001a0: 5f93 483f 58b7 713f 2d84 133f d1cc b93f
000001b0: 7d5f 843f 33e4 d13e 9443 993f 5ec7 8c3f
000001c0: b8ba 803f 1875 903e 197b 2f3e a5b3 453f
000001d0: bafd 463f 6c1c 8b3f a5e5 2c3f c49f ad3f
000001e0: fce2 cc3e b16e 523e 9b46 873f 2d71 933f
000001f0: 6067 f33e de66 6a3f 4575 ab3d a417 aa3f
0.94306606 1.4222667 0.93483984 0.72762203 0.5451127 0.17808564 0.20120984 0.80601513
0.83990926 0.89511025 0.11876834 0.21856198 0.36198002 0.09975963 0.64484394 0.34667104
0.58678645 0.7475115 1.0414441 0.35580435 0.3617461 1.1194313 0.11337238 0.13518012
0.60294443 0.7691771 0.2113223 0.56979537 0.21028952 0.47680637 1.0010028 0.15796383
0.6357101 0.15976635 0.39824873 0.8959615 0.22044621 0.7379376 0.7536733 0.38766268
0.9348929 0.22434913 0.46182203 0.999644 0.30988422 0.29756454 0.72087383 0.23352563
0.25585243 0.70862424 0.4575264 0.1135298 0.35994935 0.37072212 1.3135182 1.2140192
0.43224323 0.9936565 0.31681812 0.71157277 1.8274155 1.340151 1.1602246 1.4916912
0.7662388 0.19875838 0.11641251 0.2348516 1.0797061 1.0091244 1.332772 0.08420355
0.2587223 1.1249169 0.08804657 0.70002544 0.32786423 0.17850637 0.4187392 1.2877308
0.18907578 0.23330098 1.0732244 0.6564923 0.28174198 0.3233535 0.46096793 0.54127306
1.0688815 0.5281394 1.1199694 0.079756744 0.10111669 0.16270822 0.61664045 0.26624355
0.27442655 0.5956351 0.16316617 1.0361577 0.13078733 0.7073616 0.89441776 0.30364192
0.7834987 0.94420385 0.5762356 1.451563 1.0341641 0.40994415 1.1973748 1.0998342
1.0056982 0.28214335 0.17136802 0.7722724 0.77730906 1.0868049 0.6753791 1.3564382
0.40016925 0.20550038 1.0568422 1.1518914 0.47539806 0.9156321 0.08371977 1.3288465

resblock1.conv2.weight f4 [128, 128, 3, 3]
00000000: 89df 883c b7ab 0e3d d11b 143c 905b e03c
00000010: cca0 a63c cbe4 8cbb cb98 323c 760f c0bc
00000020: 3a21 b6bc 8c5f b83b 19ef fabc b601 b43b
00000030: 44f4 9b3c 5982 8f3c cff1 b2bc ca1f ed3c
00000040: 7e49 bb3a 9975 65bc bf19 763c 5c8e 883c
00000050: 6c27 fcbc 4f8f abbc 4f1b 713c 4bcb 623c
00000060: a2f7 db3b 8147 c63c 800a 293c d4cd 47bc
00000070: 409e cd3c cd52 98bc 9c45 3a3c 24ba 133c
00000080: 38ba 3a3c cddf 03bd 65a9 c2bc 5159 abba
00000090: 10d3 46bb a8b6 bc3c 3bd8 573c feca 2abc
000000a0: 941d babb efc8 41bc 9bc9 b23b 2ce1 c8bc
000000b0: 8990 9ebc efe1 533c 9d9b 5dbb a63e a3bb
000000c0: 347d 953c 99b7 1b3b 2704 03bc e51f 5bbc
000000d0: 79e9 853c bcbc ecbc 3749 9a3b a38b 9bbc
000000e0: d05f cdbc 9e03 b3bc 57a5 6f37 46fd a8bc
000000f0: 9214 a13c c434 433c f672 cdbc d41e 373c
00000100: 33de a43c c093 68bc eebd c6bc 29fe 533c
00000110: b5b6 a0bc 4322 643c da1d 11bc 5781 c1bc
00000120: f809 5dbc 0e9c 053c e69c e7bb 6565 3b3c
00000130: b3fd abbc 93a8 71bc ea1e a338 0815 8e3c
00000140: 734e adbc fc5e 283c d304 dbbc dd56 d43a
00000150: 3ab9 783a 3101 05bc 01fd 92bc 9808 e33c
00000160: baf3 b8bc 844b 943c ba8a f43b ae91 6abc
00000170: d334 cf3b 8740 1e3b ad65 24b8 11ee 2dbc
00000180: 0652 78bb 5ba7 09bd f5b3 b3bb d05f b4bc
00000190: 273a 623c 5250 5abc 0970 f4bc c9eb 483c
000001a0: d536 86bb ebf0 89bc 7506 943c b742 91bc
000001b0: b47f 25bb 7467 673c 1136 133c 4a4d e7bb
000001c0: fe0e 49bc cf95 003d d1c4 bcbc b664 d63c
000001d0: bcf9 0abc 154a b2bc 5f1e 42bc 910d 50bc
000001e0: 087c 85bc 14bf 80bc 8d3a 7dbc 107b 5b3c
000001f0: c4b6 a23c c0c3 3dbc e354 253c ef0e b5b8
00000200: 9404 cbbc 02a8 c5bc 882a e5bc a978 b03c
00000210: 41ea e8bc 93ad f5bc 82b7 d8bc 524d 5a3c
00000220: 3576 2b3c 0646 b0ba 814e 17bc 3453 053b
00000230: 2892 2fbc 214f 463c d706 75bc 4e86 ecbb
00000240: 105f 273b 89e7 fc3b 46d8 ffba ae80 f6bc
00000250: d2df 0a3c d203 07bd 669a db3b 10c3 6a3c
00000260: 1e2a fe3b 0cc2 773c 3ca5 923c d8da 8cbc
00000270: fc43 c73c 7e19 4b3c ec58 5a3c 335c bf3b
00000280: 237e c839 6063 25bc bb66 4c3c fd12 ff3c
00000290: 71d7 003d 8076 fdbc c585 093d 9c11 6c3c
000002a0: 9d89 83bb 6846 10bc a772 b23c 3f5c 8f3c
000002b0: ac07 bc3c 73e3 aa3c 1cde 0c3c 4848 cf3b
000002c0: 09bf f03b de42 91bc 31f0 bf3c eabb 4c3b
000002d0: 8b00 e2bc f27c a43c 72b1 6cbc a086 b2bc
000002e0: 6c3f b7bc 95e6 953c dccd 033c b589 35bb
000002f0: 2a98 30bc 5aff d5ba 11c4 d03c 1c04 b0bc
00000300: c7ec 6e3c 11e7 98ba e37f a3bc b1e1 17bc
00000310: f956 a33c 6044 6eba a050 493b 36b3 41bc
00000320: 7aa1 80bc a149 023d 0bcb efbc bfb9 efbc
00000330: 6042 7a3c 7a48 ccbc aacf 08bc c161 09bc
00000340: 9813 b93b 49e2 803b ac7c cabc e416 32bc
00000350: 53fb 93bb 014d 363c 8400 2f3b 4342 78bc
00000360: 5101 adbc 0a53 ce3c bd25 95bb d99f db3c
00000370: 83bd 6c3b aed2 8abc a4e1 f83b a9b8 ab3c
00000380: df6d 023d 169e 19bc 7dbe bcba d38a d13c
00000390: a0bf 8c3c ca5a adbc 7578 163c 6915 61bc
000003a0: 8698 9ebc 5c1b 033d 5293 253b a067 acbc
000003b0: 2a52 6ebc b9cd d3bc 2bfc 5cbc bfaf d73b
000003c0: 5f91 f0bc 8107 a03c f41b 00bd b5ac c3bb
000003d0: 9222 c739 80a8 873c af31 9d3c 9471 293c
000003e0: 81f6 f4bc af37 49bc e6a3 e7bb d6f7 973a
000003f0: c2af 1fbc 7bff ffbc 58fe bd3c bd5b 06bd
0.016708152 0.03483173 0.009039835 0.02738741 0.020340346 -0.004299735 0.0109006865 -0.023444872
-0.02223264 0.0056266245 -0.030631589 0.005493368 0.019037373 0.01751821 -0.021843819 0.028945822
0.001428887 -0.014005088 0.015020787 0.016669445 -0.030780517 -0.020942358 0.0147159835 0.013842414
0.0067128697 0.024204018 0.010317445 -0.012195069 0.025099874 -0.01859417 0.011369135 0.009016547
0.011396937 -0.032195855 -0.023762414 -0.0013072883 -0.0030338205 0.023036316 0.013174112 -0.010424374
-0.0056797955 -0.011827691 0.005456162 -0.024521433 -0.01935603 0.012932285 -0.0033814677 -0.0049818335
0.018248178 0.0023760556 -0.007996595 -0.0133743035 0.01634668 -0.02889859 0.004708435 -0.018987482
-0.025070101 -0.02185231 1.4284006e-05 -0.020628583 0.019663129 0.011914436 -0.025079232 0.011176784
0.020125484 -0.014195383 -0.024260487 0.0129390145 -0.019618372 0.013924184 -0.008857215 -0.023621244
-0.013491146 0.008154882 -0.0070682643 0.011437749 -0.020994997 -0.014749664 7.778204e-05 0.017344013
-0.021155572 0.010276552 -0.026735699 0.0016200204 0.000948805 -0.00811796 -0.017942907 0.027714059
-0.022577155 0.018102415 0.0074628266 -0.014316959 0.006323436 0.0024147348 -3.919534e-05 -0.0106158415
-0.0037890687 -0.03360687 -0.005484099 -0.022018343 0.01380781 -0.013324814 -0.029838579 0.012263247
-0.004095892 -0.016838511 0.018069485 -0.017732007 -0.002525312 0.014123786 0.008985058 -0.007058774
-0.012271641 0.03139287 -0.023043068 0.02617107 -0.008482393 -0.02176384 -0.011848061 -0.012698547
-0.016294494 -0.015716113 -0.015455854 0.01339604 0.01986254 -0.011582315 0.010091039 -8.633534e-05
-0.024782456 -0.024127964 -0.027974382 0.02154191 -0.028432013 -0.029989993 -0.02645469 0.013324099
0.0104651945 -0.0013448603 -0.009235025 0.0020343782 -0.010715999 0.012103827 -0.014955244 -0.007218159
0.002553884 0.007718031 -0.001951941 -0.030090656 0.0084762145 -0.032962628 0.0067017553 0.014328733
0.0077564856 0.015121948 0.017901056 -0.017194197 0.02432441 0.0123962145 0.013326865 0.0058398484
0.00038240952 -0.010094494 0.012475665 0.031136984 0.03145546 -0.030940294 0.03357484 0.014408495
-0.0040142075 -0.008805849 0.021783186 0.017500041 0.022952877 0.02086041 0.008597877 0.0063257553
0.007346992 -0.01773208 0.023429962 0.0031239935 -0.02758815 0.02007911 -0.014446603 -0.02179271
-0.02236911 0.018298427 0.008044686 -0.0027700488 -0.010778466 -0.0016326711 0.025484117 -0.021486335
0.014582819 -0.0011665543 -0.019958442 -0.009270118 0.019938933 -0.0009089168 0.0030718222 -0.011822512
-0.015701998 0.0318085 -0.029271623 -0.029263375 0.015274614 -0.024936903 -0.008350292 -0.008385123
0.0056480877 0.0039332253 -0.024717651 -0.010869715 -0.004516044 0.011126758 0.0026703188 -0.015152517
-0.021118792 0.02518608 -0.004551618 0.02680962 0.00361237 -0.016946163 0.007595258 0.020962076
0.031843062 -0.0093760695 -0.0014400032 0.025578892 0.017181218 -0.021161456 0.009183993 -0.013738015
-0.019359838 0.032008514 0.0025264812 -0.021045506 -0.014545957 -0.025854932 -0.013487856 0.00658223
-0.029366193 0.019534828 -0.03127666 -0.005971516 0.00037981995 0.01655984 0.01918873 0.010342021
-0.029902698 -0.012281342 -0.0070690988 0.0011594247 -0.009746494 -0.031249752 0.02319257 -0.032802332

resblock1.bn2.weight f4 [128]
00000000: 4449 813f 9206 813f af82 7e3f b3c8 7e3f
00000010: 89d3 7d3f 9e33 803f 647e 7d3f a537 7e3f
00000020: e035 813f aabb 803f d150 813f 1d61 813f
00000030: ff80 7e3f 364b 813f 19a3 803f 3a54 813f
00000040: eb5f 813f cd34 803f 3fb5 7e3f 34b7 803f
00000050: 6a18 7e3f e921 7e3f b846 813f 1b9c 7e3f
00000060: 381e 813f 8af9 7e3f 3601 7e3f 6474 7e3f
00000070: 173d 813f 6f92 7e3f ff57 813f f5de 7f3f
00000080: b050 813f e51d 813f 097d 7e3f ce30 813f
00000090: d6c7 7f3f 793a 813f 0e4b 813f a1a2 7d3f
000000a0: 5257 813f 174b 813f 185f 7e3f ba46 813f
000000b0: f7e2 7d3f 4fff 803f 2f57 7e3f 281c 7e3f
000000c0: 03a4 803f 3aa8 803f 8a55 813f 9640 813f
000000d0: 4a7f 7e3f 2616 7f3f f040 813f 7f44 7e3f
000000e0: 9227 813f a82c 7e3f cbb2 803f 656d 7e3f
000000f0: fb65 7e3f 03f1 7d3f 2aba 7d3f e566 7f3f
00000100: 5c3e 813f bba7 7e3f 8f50 813f 3805 7e3f
00000110: e58f 7f3f db71 7e3f 368c 7f3f 1351 813f
00000120: d6d9 7d3f ce21 813f b555 7e3f d6c8 803f
00000130: 47b0 7e3f 3b58 7e3f 563e 813f 8294 7f3f
00000140: dd3b 813f 6f55 7e3f eb84 7e3f f251 813f
00000150: e8dd 7e3f 961c 813f 35af 803f 7801 813f
00000160: 8585 803f 9d42 813f 1063 813f 0838 813f
00000170: 9e5f 813f cb3c 813f 443f 813f 6ae2 803f
00000180: 2456 813f fc91 7e3f 9d99 7e3f 7444 813f
00000190: b6d9 7d3f 9d4a 813f 57f1 803f 9338 7e3f
000001a0: 0e7f 7f3f a798 7e3f 8b37 813f b32f 7e3f
000001b0: 5c0e 7e3f 30ab 7d3f f53f 813f 01d0 803f
000001c0: f133 7e3f d829 813f 8745 7e3f 4f38 813f
000001d0: 98cb 803f 2926 813f 3b32 813f 00b3 7e3f
000001e0: 5e59 813f 6d47 813f 7d57 813f 0488 7e3f
000001f0: bb87 803f 424a 813f 4033 813f 44d7 7e3f
1.0100484 1.008013 0.9941816 0.9952499 0.991509 1.0015752 0.9902098 0.99303657
1.0094566 1.005727 1.0102788 1.0107762 0.9941558 1.0101078 1.0049773 1.0103829
1.0107397 1.0016114 0.9949531 1.0055909 0.99256 0.9927049 1.0099707 0.9945695
1.0087347 0.99599516 0.992206 0.9939635 1.0096768 0.9944219 1.0104979 0.9994958
1.0102749 1.0087248 0.9940954 1.0093019 0.999143 1.009597 1.010103 0.99076277
1.0104773 1.0101041 0.9936385 1.0099709 0.99174446 1.0077914 0.9935178 0.99261713
1.0050052 1.0051339 1.010423 1.0097835 0.9941298 0.9964317 1.0097942 0.99323267
1.0090201 0.9928689 1.0054563 0.9938567 0.9937436 0.9919588 0.9911219 0.9976638
1.0097156 0.99474686 1.010271 0.99226713 0.9982894 0.9939248 0.9982332 1.0102867
0.99160516 1.0088441 0.9934953 1.006129 0.9948773 0.9935338 1.0097148 0.9983598
1.0096394 0.9934911 0.99421567 1.0103133 0.9955735 1.0086849 1.0053469 1.0078573
1.0040747 1.0098454 1.0108356 1.0095224 1.0107305 1.0096678 1.0097432 1.0069096
1.0104413 0.99441504 0.99453145 1.0099015 0.99160326 1.0100895 1.0073651 0.99305075
0.99803245 0.9945168 1.0095075 0.99291533 0.9924066 0.99089336 1.0097643 1.0063478
0.99298006 1.0090895 0.9932484 1.0095309 1.0062132 1.008977 1.0093454 0.9949188
1.0105398 1.0099922 1.0104824 0.99426293 1.0041422 1.0100787 1.0093765 0.9954722

resblock1.bn2.bias f4 [128]
00000000: 9b4c 223c c107 313c 3890 fdbb 41f3 febb
00000010: a209 1dbc c135 1f3c 70c3 e03a f8fb efbb
00000020: 221b 273c 4b25 2c3c 8cfc 1e3c 689f 1e3c
00000030: 5b9c eebb e071 1d3c bd85 293c 4db2 1b3c
00000040: 28af 263c 3ec0 323c 0e6f ddbb 12ff 243c
00000050: 73b5 0cbc 86bb 25bb b608 243c 75eb f1bb
00000060: 89b1 223c 57df 0abc 6fa9 f9bb 1fcc 08bc
00000070: 1265 173c 93a0 eabb 709d 1d3c 6f70 15bc
00000080: 2674 243c ed15 273c af87 edbb f95b 1d3c
00000090: 9a46 15bc 24c9 163c ba66 243c 0ed9 4cbb
000000a0: 21dc 273c 75c1 233c 96e8 bcbb 8b8c 1c3c
000000b0: bfe2 11bc 6831 e63b 0969 dfbb 8f36 d4bb
000000c0: 1e97 2b3c 8632 243c 3a75 2a3c fa56 253c
000000d0: 6722 0fbc dfb4 07bc 3bc6 183c ed16 e9bb
000000e0: 1c8a 193c 5e4e e7bb a304 233c aac8 ddbb
000000f0: 97c6 e2bb cb85 d4bb 7b7a 1fbc e179 0bbc
00000100: 7d39 193c 93a4 f7bb 2f87 2a3c ffd4 cabb
00000110: 5ec9 673b c754 03bc 8fe1 d23b a959 293c
00000120: da75 08bc b874 163c 9c63 c1bb f788 1e3c
00000130: 508a 12bc 869b fcbb 0370 1c3c 121e 14bc
00000140: 5d77 253c 482d ecbb ad03 ecbb 9cea 1e3c
00000150: 3bae f7bb 808e 213c 95ad 243c 35ea 203c
00000160: 697f 213c 8206 203c 57ed 303c 73dd 253c
00000170: a930 283c c493 313c 4c27 233c 214e 283c
00000180: 3828 203c 93a1 f0bb 6e71 0dbc 875d 2d3c
00000190: 5134 14bc 014c 1d3c 69c8 203c e7d7 f6bb
000001a0: e3e3 03bc 36fb ca3a 49b2 1a3c 64be f8bb
000001b0: dfa7 07bc c154 22bc 7fa4 1b3c 0412 263c
000001c0: 3a98 f5bb 212d 2f3c 0fff d2bb 7ffe 1c3c
000001d0: 1eec 2c3c d9d3 173c fff2 193c 8804 dabb
000001e0: 082d 2a3c 96f7 203c 57a1 2d3c 332a eabb
000001f0: a559 293c c942 213c b183 003c 80b5 05bc
0.0099059595 0.010805071 -0.0077381395 -0.007780463 -0.009584816 0.009717406 0.0017148089 -0.007323738
0.01019934 0.010506938 0.009703767 0.00968156 -0.0072818226 0.009609669 0.010346827 0.009502959
0.010173596 0.010910092 -0.0067576235 0.010070579 -0.008588183 -0.0025288775 0.0100118425 -0.007382805
0.009930023 -0.0084761 -0.007619075 -0.0083494475 0.009240406 -0.007160255 0.009620056 -0.009121045
0.010037458 0.010198099 -0.0072488408 0.0096044475 -0.009111071 0.009203229 0.010034258 -0.0031257304
0.010245354 0.009994854 -0.005765031 0.009554992 -0.008904158 0.0070249327 -0.006817941 -0.0064762305
0.010473041 0.010021811 0.010403926 0.010091538 -0.0087362295 -0.008282869 0.009324606 -0.0071133287
0.009371307 -0.0070589026 0.009949836 -0.006768306 -0.0069206464 -0.006485676 -0.009733791 -0.008512945
0.009352085 -0.0075574606 0.010408207 -0.006189942 0.0035367827 -0.008015818 0.00643558 0.010336318
-0.008328879 0.009183101 -0.005901767 0.00967621 -0.008944109 -0.0077089695 0.00954819 -0.009040372
0.010099259 -0.0072075464 -0.0072025866 0.00969949 -0.0075586117 0.009860635 0.010051151 0.009821464
0.009857037 0.009767177 0.010798774 0.010123598 0.010265508 0.010838453 0.0099581 0.010272534
0.009775214 -0.00734348 -0.008633001 0.010581381 -0.009045676 0.00960064 0.0098134065 -0.007533062
-0.008049938 0.0015486244 0.009441921 -0.0075910557 -0.00827977 -0.009907902 0.009499668 0.010136131
-0.0074949535 0.010691912 -0.0064390968 0.009582161 0.010554342 0.009266817 0.009396314 -0.006653372
0.010386713 0.009824654 0.010597548 -0.007146144 0.010336314 0.009842583 0.007843898 -0.008160949

resblock1.bn2.running_mean f4 [128]
00000000: 4db1 32bf 6ad9 d7be c655 993e 8249 593e
00000010: 410f 883d ec9a 4abe 3140 203e 8422 ae3e
00000020: 6d15 adbe ab29 b2be bcda 7dbf 7398 5ebe
00000030: 0aae 453f fb37 a8be 3e42 69be 8476 5ebf
00000040: b9d8 80bf f700 8abe d1ab 683f 82b7 b0be
00000050: 8d35 37be 4fb5 bcbe 8142 d6be df22 693f
00000060: 90e0 e1be adbc 1c3f a173 283e 2a5f 783e
00000070: d34a e23d 4c26 2a3f 96ae b2be 700a a43e
00000080: b1ff 36bf 10ef 8fbe 2ecb 873e 4d4a 39be
00000090: c956 81bd 9569 6cbe a509 48be dae0 db3e
000000a0: 1d86 2dbf bfc6 7fbf d7da a43c e19b 6fbf
000000b0: f0a2 293d 523d 483f 9996 493f a71d 263e
000000c0: cae8 07bf 8f44 21bf e21c 23bf 28c5 19bf
000000d0: 596b 273f 212f fe3e 8565 4bbe 0506 663f
000000e0: 8ad6 0dbf bc61 503f 1559 f8be 2035 953e
000000f0: 2e85 ca3d b14c a7bc e13b 5abf 061f a33d
00000100: fb5d cfbe e7fa 263f f93e 23bf 18db 7b3e
00000110: 0a41 97be c089 583f ee3d 59be ad83 12bf
00000120: eefd 79be 8905 17bd a1d1 f53e 967c f6be
00000130: 063e d73e c9ed 2d3f 0008 4b3e 202e 853e
00000140: 13eb e9bd c99c 593f 4bdc 253f cae6 36be
00000150: 4e65 2a3f 6aed 32bf fcf5 d6be b63c 213b
00000160: 050d 78bd 6180 83be c463 87be 022b e9be
00000170: 65cd 07bf 466e f0be 8d3a 543e 4b79 8ebe
00000180: 7de5 cfbd f2a6 3b3f 0754 8a3e f203 18bf
00000190: cf89 0bbf c98d f6bb a681 f9be 546f 5a3f
000001a0: f3b6 133f 7003 41be feab bdbe 2eec 893f
000001b0: 08f8 1b3e d9f8 62bf f3c2 27bf a480 fcbe
000001c0: 7370 3fbd 30ed d2be 9473 a03e 2a59 0ebf
000001d0: 90f8 3cbf 2fe7 d5be 2257 023f 941f a63e
000001e0: 8e3c 72be a26f 49bf 2745 8fbe 8eda 6a3e
000001f0: 254f 0ebe ae2b 1bbf cb15 bbbe 75ae 903e
-0.6980179 -0.4215806 0.29948252 0.21219447 0.066435345 -0.1978566 0.15649487 0.34010708
-0.3380541 -0.34797415 -0.9916189 -0.21737842 0.7721869 -0.3285521 -0.22779176 -0.8689959
-1.0066139 -0.2695386 0.9088717 -0.34515005 -0.17891522 -0.36857077 -0.41847613 0.91068834
-0.4411664 0.61225396 0.16450359 0.24255052 0.11049428 0.66464686 -0.34898823 0.32039213
-0.71483904 -0.28112078 0.265222 -0.1809475 -0.06315381 -0.23087151 -0.19534929 0.42944986
-0.67782766 -0.9991264 0.020123882 -0.9359723 0.041415155 0.7821857 0.7874542 0.16222249
-0.5308958 -0.6299524 -0.63715947 -0.6006646 0.65398175 0.49645332 -0.19862945 0.89852935
-0.55405486 0.8139913 -0.48505464 0.29142094 0.09888683 -0.020422311 -0.8524762 0.079649016
-0.4050139 0.65226597 -0.63767964 0.24595296 -0.29541808 0.8458519 -0.2121503 -0.5723217
-0.24413273 -0.036870513 0.48011497 -0.48141927 0.42039508 0.67940956 0.1982727 0.26011753
-0.1142179 0.8500486 0.64789265 -0.17861477 0.6656083 -0.69893515 -0.41984546 0.0024602837
-0.06055929 -0.25683883 -0.26443303 -0.45540625 -0.5304778 -0.46959132 0.2072546 -0.27826914
-0.10151193 0.73301613 0.27017233 -0.5938102 -0.54507154 -0.0075242263 -0.48731726 0.85326123
0.57701033 -0.18848968 -0.37045282 1.0775201 0.15231335 -0.8866096 -0.65531844 -0.49316895
-0.0467381 -0.41196585 0.3133818 -0.55604804 -0.73816776 -0.41777942 0.50914204 0.32445967
-0.23655912 -0.78685963 -0.27982447 0.22934934 -0.13897379 -0.60613525 -0.36540064 0.282581

resblock1.bn2.running_var f4 [128]
00000000: 0dc5 0340 7c8e 733e de81 443f 735e 433f
00000010: fc33 943e 12f7 4140 6271 ca3f 3688 dd3f
00000020: 4fd9 d83e 49cb 173f a328 2640 b5af b93e
00000030: ed15 5340 265a 833e b1b1 803e 0bad 8b40
00000040: 77e9 3f40 7e62 943e 921e 5040 a3b3 b53e
00000050: cf42 9a3e 4177 293e 62d6 883f 425a 5840
00000060: 7789 c23f a8a5 663f c701 dc3e 0673 923e
00000070: 6137 043f f8d1 0340 57f6 423e 1d47 853f
00000080: 4f65 1540 0124 b63e 351e 303f 4fa4 aa3f
00000090: a5db f43e 6184 873e a44b 113f 5164 563f
000000a0: a1b3 3f40 b5ba d93f 0fea 263f 203a 3e40
000000b0: f87f 863e 8226 1140 ee5f 4140 f812 8a3f
000000c0: ede8 1f3f e567 5f3e d154 553f b902 2e40
000000d0: c22b 2b40 fe3c 053f f3ef 1f3f bcd3 7a40
000000e0: df2d ca3f b05b 4540 e9b1 4340 03b0 103f
000000f0: ca4a 993f 7a81 5f3e baaf 6740 b703 f93e
00000100: 7868 c73f 54be e03f b8ab 533f fc94 b73e
00000110: 9cd6 cb3f 57c5 9b40 8b0b 673e 0ff9 ae3f
00000120: 293b 203f 1a1f b53e 2533 fc3f 6165 4940
00000130: e5d6 933f 0bc6 2c40 7d69 613e a549 a43e
00000140: 8f13 873e 2d99 5940 b247 6940 d054 cf3e
00000150: 4b8d 5040 e8b7 4a3e d324 b73e a686 b13e
00000160: a676 693e 933b 3f3f 311d 113f 4ffd 3940
00000170: 135d 4d40 969f 6140 ac39 033e 6d77 c73e
00000180: c2dc e43e 1ec4 fa3f 2d4c 0b3f 0c3f ae3f
00000190: 67f6 1940 eb3f 953e ace4 8d3e c4b7 d43f
000001a0: 641e 8a40 e118 8e3e 5386 9c3f 01ca 7b40
000001b0: a683 3b3f 8f6c ae40 c9c7 ad3f 28bb af3e
000001c0: ed09 963e 2894 6e3f 59c5 083f 61f4 243f
000001d0: 6f11 d23f bacf 743e 8695 883f 3bef fd3f
000001e0: 8b83 a83e 4d56 f43f b823 d43e 17ce b23f
000001f0: 291e a83e fd48 ef3f a575 a13e a1fb b73f
2.058902 0.23784822 0.7676066 0.76315993 0.2894591 3.030705 1.5815852 1.7307193
0.42353293 0.59294564 2.5962303 0.36266866 3.2982132 0.25654715 0.25135568 4.3648734
2.9986246 0.28981394 3.2518659 0.35488614 0.30129096 0.16549398 1.0690424 3.380509
1.5198201 0.9009652 0.42970106 0.2860338 0.51647 2.0596905 0.19039284 1.0412327
2.3343084 0.35574344 0.6879609 1.3331393 0.47823825 0.26468185 0.56756043 0.8374682
2.9953387 1.7010103 0.65200895 2.9722977 0.26269507 2.2679753 3.02148 1.0787039
0.6246479 0.21816976 0.83332545 2.7189162 2.6745458 0.5204619 0.6247551 3.9191732
1.5795249 3.0837212 3.0577338 0.5651857 1.1975949 0.21826735 3.6201005 0.48635647
1.5578756 1.7558084 0.82683897 0.35855854 1.5924869 4.8678393 0.22562997 1.3669757
0.6259027 0.3537529 1.9703108 3.1468127 1.1549956 2.6995876 0.22012897 0.32087436
0.2638211 3.399974 3.645001 0.40494394 3.2586238 0.19796717 0.35770282 0.3467304
0.22799167 0.7470028 0.5668517 2.9060857 3.2088058 3.5253654 0.12814969 0.38958302
0.44699675 1.95911 0.5441311 1.361299 2.4056642 0.29150328 0.27713525 1.6618581
4.31621 0.27753356 1.2228492 3.9342043 0.73247755 5.450752 1.3576595 0.34322476
0.29304448 0.9319482 0.5342613 0.6443539 1.641157 0.23907366 1.0670631 1.9838632
0.3291286 1.9088837 0.414335 1.3969144 0.3283551 1.8694149 0.31535068 1.4373666
