studies_tests/Models/mnist_model.pth (torch, 111629 bytes, 28 tensors)

conv1.weight f4 [8, 1, 3, 3]
-0.07140208 -0.17846435 -0.099160746 -0.016431965 -0.112351626 -0.20580763 -0.0994621 -0.20254385
0.18680915 0.22470583 -0.10055989 0.0074188816 -0.21841379 -0.2755258 0.25827497 -0.47931546
0.15392715 0.4697454 -0.27936 0.05787756 0.23164792 -0.19030991 -0.4352766 0.22452839
0.18049757 -0.30441225 -0.2341004 -0.19275233 0.24364008 0.3676503 0.10969364 0.25676236
-0.19970451 -0.20870113 -0.38303083 -0.46731982 0.19200498 -0.087466575 -0.27451804 0.14852925
-0.006517098 -0.30739155 -0.20333883 -0.39947572 -0.024803955 -0.024476495 0.1969021 0.19374084
0.0259121 0.21999295 0.34238654 0.3657838 0.08473117 0.26936403 0.47128946 -0.5060611
-0.426509 0.2328375 0.16556217 0.06462597 0.12846774 0.09479201 0.37322375 0.27360445
0.27667943 0.023586921 -0.27235472 0.047821056 0.3810592 -0.24993841 -0.3737764 -0.08523613
00000000: 413b 92bd 5cbf 36be ca14 cbbd 549c 86bc
00000010: 9c18 e6bd 3cbf 52be c9b2 cbbd a867 4fbe
00000020: e64a 3f3e 4919 663e 58f2 cdbd 171a f33b
00000030: dda7 5fbe b811 8dbe 9e3c 843e d668 f5be
00000040: 149f 1d3e 7882 f03e 4608 8fbe 0511 6d3d
00000050: 1d35 6d3e 9ae0 42be 93dc debe c5ea 653e
00000060: 5bd4 383e ecdb 9bbe 04b8 6fbe de60 45be
00000070: c97c 793e a93c bc3e 0fa7 e03d 5b76 833e
00000080: 577f 4cbe c0b5 55be 9e1c c4be 8b44 efbe
00000090: f49c 443e ad21 b3bd a18d 8cbe 0d18 183e
000000a0: 618d d5bb 6d62 9dbe 0e38 50be 1588 ccbe
000000b0: aa31 cbbc ee82 c8bc b4a0 493e 0064 463e
000000c0: 9d45 d43c d545 613e 4a4d af3e 0448 bb3e
000000d0: 8987 ad3d 15ea 893e da4c f13e 388d 01bf
000000e0: 635f dabe f46c 6e3e 2189 293e 9f5a 843d
000000f0: 0c8d 033e 5022 c23d 2f17 bf3e e215 8c3e
00000100: eda8 8d3e 5c39 c13c 1472 8bbe 03e0 433d
00000110: 311a c33e dbef 7fbe 9f5f bfbe 4890 aebd

conv1.bias f4 [8]
-0.017450111 -0.24638437 -0.19844878 0.09259704 -0.2665724 0.30761924 0.023212813 0.14279056
00000000: 89f3 8ebc 2f4c 7cbe 2836 4bbe 84a3 bd3d
00000010: 2d7c 88be 4580 9d3e cc28 be3c b037 123e

bn1.weight f4 [8]
1.0761975 0.84174454 1.3375455 1.0344645 1.2172269 0.7924944 0.76702523 0.80350906
00000000: d7c0 893f 927c 573f b134 ab3f 5569 843f
00000010: 17ce 9b3f eae0 4a3f c45b 443f c5b2 4d3f

bn1.bias f4 [8]
0.16328153 -0.03466994 0.09743951 0.06918143 0.09460929 -0.061098948 -0.008796513 -0.00965136
00000000: 4633 273e 1102 0ebd 5e8e c73d feae 8d3d
00000010: 84c2 c13d e442 7abd 401f 10bc bd20 1ebc

bn1.running_mean f4 [8]
-0.12106038 -0.24113162 -0.29558018 0.031187791 -0.3914339 0.52467614 0.10079041 0.14562586
00000000: 81ee f7bd 35eb 76be 4956 97be 8a7d ff3c
00000010: 066a c8be 2d51 063f 346b ce3d f21e 153e

bn1.running_var f4 [8]
0.047349904 0.038966317 0.05039049 0.054457784 0.08251695 0.18624437 0.054263804 0.03135886
00000000: f9f1 413d 259b 1f3d 4266 4e3d 200f 5f3d
00000010: a6fe a83d d8b6 3e3e b943 5e3d 2672 003d

conv2.weight f4 [16, 8, 3, 3]
-0.085018136 -0.18354793 -0.03172594 -0.021698687 -0.004663072 0.032544382 0.053621557 0.116598174
-0.013009915 -0.047305867 -0.09856971 -0.013956484 -0.092283085 -0.07625811 -0.07023192 0.04678641
0.0035894976 -0.06590744 -0.025174478 0.13124315 -0.024628367 0.0058796094 -0.12645735 -0.17138213
-0.028062953 -0.019853683 -0.113847 0.09206724 0.23208715 0.06680456 0.11872718 0.12400668
-0.08052672 -0.13394737 0.101643436 -0.048921667 -0.03693293 -0.14041343 -0.04496715 0.006938676
0.010527073 -0.03996965 0.12022522 0.022431197 -0.073805295 0.025336327 0.046629164 -0.081470534
-0.17591558 -0.0245699 -0.097152755 0.22287071 0.12910075 0.1791835 -0.08441762 -0.010247075
-0.14611484 -0.048682638 -0.13329625 -0.06709723 -0.014276703 0.111394964 0.16172534 0.27783358
0.17103985 -0.012012058 -0.04137036 -0.17498475 -0.19350973 -0.23972395 -0.063275255 0.08998901
0.04648861 0.009065254 -0.06667827 -0.13232191 0.051594682 -0.08343278 -0.07208404 -0.099557646
-0.08546262 0.038641382 0.01642509 -0.025772618 -0.006573771 -0.02605107 -0.11667958 0.034152113
0.016504962 -0.15175992 0.08206384 0.042752706 0.026517091 -0.09137696 -0.044926852 -0.051417537
0.22666046 0.09908751 0.14892617 0.027634406 -0.064170435 0.04922116 -0.030552616 -0.054634206
0.02736703 -0.20134787 -0.115912125 0.040612962 -0.06257625 -0.11928952 -0.030018292 -0.13885757
-0.13924791 -0.11856282 -0.056026157 -0.15252973 -0.06913085 0.13646732 -0.011292022 -0.023062361
0.040155284 -0.09607505 -0.04620903 -0.058159858 -0.14412576 -0.065400645 0.15397362 0.13150197
0.16778949 -0.0746723 0.1460109 -0.14116855 0.08007936 0.14790975 -0.012873601 0.017068872
0.01721077 0.09171011 0.19049272 0.0062625175 0.19642702 -0.0026442395 -0.013063976 0.0797891
-0.026703782 0.035190932 0.015806828 -0.122964464 -0.073813625 0.010130671 0.06731316 -0.14752962
0.07940202 -0.15798461 0.012636024 -0.063969865 -0.13943382 0.04947396 0.17685184 -0.033786226
-0.10697444 -0.15466623 -0.10333743 0.044105228 -0.01684037 0.01773121 0.03799631 -0.107651055
-0.064756714 -0.19603983 -0.13193202 -0.07749293 -0.071010485 -0.051741976 0.06028163 -0.009824223
0.004888066 0.04671693 0.07885573 0.019763019 0.07025489 0.06948442 -0.0046325233 -0.1689775
0.09591165 0.14987594 -0.08210109 0.0173064 0.09823406 -0.15854684 -0.14441323 0.03222151
-0.009619471 0.102540955 0.09872646 -0.13129658 0.04252837 -0.09083744 0.114042595 0.04188146
0.198537 0.19975348 0.039463367 0.03476175 0.060735878 -0.06050065 -0.003488685 -0.10660592
-0.09010223 -0.050047174 -0.0031852582 -0.12697035 -0.051982995 0.11737219 0.054482747 0.07607958
0.076854475 -0.020102164 -0.10542582 -0.018557362 0.057824075 -0.00085215044 0.08141551 -0.033177864
-0.021289796 -0.1428188 -0.09264633 0.04453677 -0.13806668 -0.13576883 -0.0793782 -0.019269325
-0.077254556 0.05566025 -0.014266306 0.060244042 0.01902394 0.13313033 0.1333295 -0.060067818
-0.038835052 0.18457511 0.04472119 0.022226011 0.021675123 0.16831635 -0.14000031 -0.07223873
-0.09581405 0.10826769 -0.07610357 -0.0048422394 0.04900618 -0.07132768 0.09125609 -0.11499253
00000000: fd1d aebd fdf3 3bbe 0ff3 01bd 72c1 b1bc
00000010: afcc 98bb 424d 053d 47a2 5b3d 06cb ee3d
00000020: 8a27 55bc ccc3 41bd ebde c9bd bda9 64bc
00000030: eafe bcbd 362d 9cbd c1d5 8fbd 1ba3 3f3d
00000040: c73d 6b3b 7bfa 86bd b53a cebc 9b64 063e
00000050: 6ec1 c9bc bda9 c03b 097e 01be cc7e 2fbe
00000060: 47e4 e5bc 31a4 a2bc 9e28 e9bd c08d bc3d
00000070: 41a8 6d3e d4d0 883d 3c27 f33d 37f7 fd3d
00000080: 31eb a4bd 8029 09be 6f2a d03d 1662 48bd
00000090: fc46 17bd 8ac8 0fbe 792f 38bd d55d e33b
000000a0: bf79 2c3c 37b7 23bd a438 f63d a1c1 b73c
000000b0: 3b27 97bd 218e cf3c 39fe 3e3d 06da a6bd
000000c0: 3723 34be d146 c9bc 06f8 c6bd 3838 643e
000000d0: fd32 043e e17b 373e 25e3 acbd 59e3 27bc
000000e0: 219f 15be 7267 47bd d07e 08be 466a 89bd
000000f0: d5e8 69bc 0b23 e43d 549b 253e 3440 8e3e
00000100: 1225 2f3e 39ce 44bc f773 29bd 342f 33be
00000110: 6a27 46be 327a 75be 7596 81bd 284c b83d
00000120: d76a 3e3d 6e86 143c 9e8e 88bd 657f 07be
00000130: f254 533d cede aabd cca0 93bd e1e4 cbbd
00000140: 0707 afbd 6d46 1e3d e98d 863c 1921 d3bc
00000150: ca68 d7bb 0e69 d5bc b4f5 eebd 16e3 0b3d
00000160: 6a35 873c f466 1bbe 1611 a83d 761d 2f3d
00000170: 5f3a d93c d823 bbbd 3805 38bd 329b 52bd
00000180: ae19 683e 64ee ca3d 1a80 183e 8d61 e23c
00000190: ca6b 83bd 219c 493d 7b49 fabc 1ec8 5fbd
000001a0: d230 e03c 232e 4ebe 5663 edbd c759 263d
000001b0: fa27 80bd 104e f4bd ece8 f5bc ae30 0ebe
000001c0: 0197 0ebe 10d1 f2bd af7b 65bd c130 1cbe
000001d0: 7a94 8dbd 17be 0b3e 2c02 39bc 47ed bcbc
000001e0: de79 243d ffc2 c4bd ae45 3dbd 0839 6ebd
000001f0: b495 13be c6f0 85bd 43ab 1d3e 74a8 063e
00000200: 02d1 2b3e caed 98bd e283 153e 7d8e 10be
00000210: a600 a43d a775 173e cceb 52bc 05d4 8b3c
00000220: 9afd 8c3c 83d2 bb3d 8610 433e ce35 cd3b
00000230: 2a24 493e fa4a 2dbb 490a 56bc 7868 a33d
00000240: e4c1 dabc 5e24 103d 527d 813c cbd4 fbbd
00000250: 992b 97bd 1dfb 253c 7bdb 893d 0112 17be
00000260: 879d a23d b8c6 21be 5307 4f3c a202 83bd
00000270: bdc7 0ebe 35a5 4a3d a618 353e 6d63 0abd
00000280: 6a15 dbbd d360 1ebe 93a2 d3bd afa7 343d
00000290: d1f4 89bc 0b41 913c 05a2 1b3d 2878 dcbd
000002a0: 2b9f 84bd aabe 48be 3019 07be 9db4 9ebd
000002b0: f26d 91bd 65ef 53bd dfe9 763d c7f5 20bc
000002c0: 122c a03b 405a 3f3d 1d7f a13d 0ee6 a13c
000002d0: cce1 8f3d d94d 8e3d 6ccc 97bb 7008 2dbe
000002e0: 546d c43d 1479 193e 9e24 a8bd 27c6 8d3c
000002f0: f02e c93d 1a5a 22be 10e1 13be b4fa 033d
00000300: fc9a 1dbc fe00 d23d 1931 ca3d 9c72 06be
00000310: 3a32 2e3d fb08 babd 2a8f e93d e58b 2b3d
00000320: 494d 4b3e 2d8c 4c3e 57a4 213d 5662 0e3d
00000330: 2fc6 783d 88cf 77bd 6ca2 64bb 3454 dabd
00000340: 8587 b8bd 44fe 4cbd c4bf 50bb 8404 02be
00000350: 1fec 54bd d560 f03d 4d29 5f3d 9ccf 9b3d
00000360: e165 9d3d 4bad a4bc 7ee9 d7bd 9c05 98bc
00000370: f0d8 6c3d d962 5fba 2dbd a63d 83e5 07bd
00000380: f067 aebc 173f 12be 5cbd bdbd 306c 363d
00000390: 5a61 0dbe fc06 0bbe 0a91 a2bd b4da 9dbc
000003a0: a337 9ebd 01fc 633d 39bd 69bc 75c2 763d
000003b0: 18d8 9b3c 5153 083e 8787 083e ac09 76bd
000003c0: 8111 1fbd 4201 3d3e 912d 373d 5313 b63c
000003d0: 0790 b13c 1f5b 2c3e 3e5c 0fbe e6f1 93bd
000003e0: 283a c4bd 73bb dd3d 30dc 9bbd a6ab 9ebb
000003f0: b4ba 483d 3f14 92bd 79e4 ba3d 3481 ebbd

conv2.bias f4 [16]
-0.08655472 0.047444955 -0.115649104 -0.098482944 -0.029795444 0.02167813 0.08622548 0.08799397
-0.02634851 -0.014354635 -0.075424545 0.007087105 -0.072633676 -0.094387926 0.106008284 -0.002426533
00000000: 9a43 b1bd a455 423d 70d9 ecbd 6db1 c9bd
00000010: 9315 f4bc 5596 b13c fc96 b03d 2f36 b43d
00000020: d5d8 d7bc b42f 6bbc 2f78 9abd f23a e83b
00000030: f7c0 94bd 754e c1bd df1a d93d 7806 1fbb

bn2.weight f4 [16]
1.024502 0.7908202 0.909775 1.0624913 1.1065563 0.9805672 0.8424851 1.0803733
1.0379263 0.9342925 1.1112247 1.0242712 1.0194697 0.8559938 1.1136397 0.9724292
00000000: e222 833f 3173 4a3f 04e7 683f b7ff 873f
00000010: a3a3 8d3f 7406 7b3f 1aad 573f ac49 8a3f
00000020: c5da 843f cb2d 6f3f 9c3c 8e3f 521b 833f
00000030: fc7d 823f 6922 5b3f bf8b 8e3f 1ff1 783f

bn2.bias f4 [16]
-0.14517498 -0.141176 -0.09077751 -0.014501962 -0.09652063 0.051711358 -0.19868228 -0.07784555
0.017673125 -0.18562524 0.0040510786 0.011724399 -0.033041824 -0.15322831 -0.020863364 -0.23518065
00000000: c0a8 14be 7190 10be 8fe9 b9bd a399 6dbc
00000010: 9cac c5bd 4acf 533d 5e73 4bbe 7d6d 9fbd
00000020: 3bc7 903c 8b14 3ebe e9be 843b b217 403c
00000030: dd56 07bd e2e7 1cbe a5e9 aabc 32d3 70be

bn2.running_mean f4 [16]
-0.45839107 -0.30463836 -0.41880897 -0.13269478 0.3966493 -0.020995595 -0.8263622 0.297675
-1.0035545 -0.8668341 -0.43584532 -0.41152927 -0.7584755 -0.3805466 0.35136208 -0.07468646
00000000: 3cb2 eabe 8ff9 9bbe 216e d6be 24e1 07be
00000010: 9e15 cb3e f4fe abbc 798c 53bf dc68 983e
00000020: 7974 80bf d7e8 5dbf 1e27 dfbe f7b3 d2be
00000030: 732b 42bf 01d7 c2be bbe5 b33e 37f5 98bd

bn2.running_var f4 [16]
0.6336114 0.40401095 0.32556957 0.42657796 0.5812584 0.36244294 0.5352808 0.52149135
0.33257765 0.20261939 0.4901195 0.47405535 0.4360621 0.5956341 0.8697174 0.43350375
00000000: 5b34 223f 86da ce3e 0eb1 a63e 6d68 da3e
00000010: 5acd 143f 1f92 b93e 2a08 093f 7580 053f
00000020: 9e47 aa3e 757b 4f3e f1f0 fa3e 62b7 f23e
00000030: 8843 df3e 7a7b 183f cda5 5e3f 34f4 dd3e

conv3.weight f4 [32, 16, 3, 3]
-0.04935541 -0.17160274 0.028462881 -0.044873152 -0.038196594 -0.0942772 -0.005778354 0.039846662
0.13038968 -0.025019733 0.086206116 0.09492862 -0.032418355 -0.04220569 -0.01896337 -0.0053838296
0.043819893 -0.028423196 -0.05061959 -0.11747864 -0.031012254 -0.061572652 0.013786393 0.033102255
0.041627653 -0.023331633 0.024576323 -0.06745745 -0.021952432 0.14311562 -0.02053567 -0.03490965
0.03099132 -0.038818654 0.13400762 -0.040008504 -0.009787925 -0.10717313 -0.013373475 -0.055340644
-0.10744715 0.07129777 0.0029316118 0.01496141 0.05405278 -0.031071417 0.013503065 -0.12431495
0.07946757 0.06315951 0.04732119 -0.037551377 -0.020260578 -0.11940636 0.036679648 -0.04593288
-0.024557555 -0.03053923 -0.11103388 -0.019737069 0.02055091 0.07634497 0.11103152 -0.03776411
-0.07914262 0.040212613 -0.1135667 0.0010049534 0.052366454 0.069449335 0.11353665 0.1395933
0.037591774 -0.05663207 -0.14607656 0.052315548 -0.056098733 -0.10856442 0.11995954 0.1361541
0.01694782 -0.14832756 0.0214365 -0.058013387 0.04341245 -0.023050904 -0.12950607 -0.043907654
-0.04433428 -0.07557515 0.003733264 0.12617323 0.0339767 -0.015398374 -0.040219326 -0.089671545
-0.011548746 0.17875935 0.11509426 -0.0026420807 -0.063593775 -0.080322206 0.013241425 -0.14715627
-0.115041286 0.11035852 0.037613712 0.012580596 -0.14475884 -0.17981917 -0.025419453 -0.081210256
-0.018136773 0.07978367 -0.0067154863 -0.04842691 -0.17200765 0.09275746 0.118079305 0.026773054
-0.059447616 -0.04732715 -0.07761796 -0.048019413 0.0066192043 0.0238676 -0.063295454 -0.120398015
0.12020022 -0.11324732 0.014665834 0.11053386 0.15014207 0.047984313 0.117197044 0.1011503
-0.021829238 -0.014068869 -0.08086159 -0.09301588 0.18662861 -0.021506066 0.05284468 -0.08325935
-0.0043299515 -0.0015584358 -0.062150046 -0.021580236 -0.030032936 -0.00821859 0.03469927 -0.0054360502
0.043982506 -0.028066365 0.049499143 -0.093332484 -0.045169998 0.06804543 -0.16589169 0.009717729
0.09571682 0.13195843 0.0087873535 0.022594372 -0.04164214 -0.000877868 0.10620214 -0.027376058
-0.017053297 -0.01009437 -0.04937426 0.08296082 -0.06924097 0.0075072316 -0.044775642 -0.014947618
0.034818843 0.06789428 0.034048203 0.054829344 0.03474486 -0.0103378 0.051197905 0.099490024
-0.03514532 0.07254221 0.08293158 -0.086797036 -0.064926334 -0.11249544 -0.030691762 -0.14870812
0.019657956 -0.04231431 -0.010775101 0.013351334 -0.010719665 0.16203155 0.084248886 0.096794896
-0.072337545 0.033067267 0.09341449 -0.040504947 0.0072983913 0.0026597036 0.08341402 -0.004870535
-0.03079772 -0.05382919 0.054528747 -0.025877416 -0.05968816 0.09446283 -0.07114595 -0.0025020877
-0.050068356 -0.053840548 0.09148318 0.00030928076 -0.019575924 0.06922278 -0.10266248 -0.062083006
0.02717044 -0.10344389 0.05570012 -0.045208003 0.043638095 0.062431168 -0.0724529 0.01739589
0.08255939 -0.034456335 -0.018582024 -0.052139103 -0.12361086 -0.013242991 -0.0011207229 -0.010654504
-0.049899098 -0.0547597 -0.06468315 -0.037594534 -0.02968896 0.11728921 0.028613644 0.013033215
0.10267181 0.0073565026 0.027318854 0.022174021 0.046312004 0.07243114 0.002851147 0.10361296
00000000: e628 4abd a1b8 2fbe fd2a e93c e9cc 37bd
00000010: 0874 1cbd 6814 c1bd 5958 bdbb 4136 233d
00000020: df84 053e 2ff6 ccbc d58c b03d f069 c23d
00000030: 1cc9 04bd e0df 2cbd 1259 9bbc d66a b0bb
00000040: 7d7c 333d c3d7 e8bc 7d56 4fbd a498 f0bd
00000050: 690d febc 9b33 7cbd 53e0 613c 3b96 073d
00000060: c281 2a3d fb21 bfbc 4954 c93c 2227 8abd
00000070: 96d5 b3bc e78c 123e 6c3a a8bc 6cfd 0ebd
00000080: 82e1 fd3c 4f00 1fbd 4b39 093e f5df 23bd
00000090: 885d 20bc 967d dbbd 6b1c 5bbc dfac 62bd
000000a0: 400d dcbd 9104 923d 4920 403b b420 753c
000000b0: 7366 5d3d 7c89 febc f63b 5d3c d698 febd
000000c0: e5bf a23d c659 813d ddd3 413d 79cf 19bd
000000d0: 83f9 a5bc 528b f4bd 663d 163d 1e24 3cbd
000000e0: ed2c c9bc 682d fabc bb65 e3bd a2af a1bc
000000f0: 625a a83c c05a 9c3d 7e64 e33d 8aae 1abd
00000100: 8715 a2bd fbb5 243d a895 e8bd a4b8 833a
00000110: 357e 563d 743b 8e3d e785 e83d 8cf1 0e3e
00000120: d5f9 193d 08f7 67bd 1895 15be d448 563d
00000130: c9c7 65bd 0657 debd 59ad f53d fb6b 0b3e
00000140: 28d6 8a3c 2ee3 17be 999b af3c 729f 6dbd
00000150: 41d1 313d 40d5 bcbc 3d9d 04be 83d8 33bd
00000160: dd97 35bd 25c7 9abd c7a9 743b 8e33 013e
00000170: 272b 0b3d 7649 7cbc 05bd 24bd b7a5 b7bd
00000180: f436 3dbc b10c 373e 8ab6 eb3d c226 2dbb
00000190: 743d 82bd f87f a4bd 90f2 583c 22b0 16be
000001a0: c49a ebbd a603 e23d d610 1a3d d81e 4e3c
000001b0: a93b 14be 8422 38be 753c d0bc 9051 a6bd
000001c0: 9293 94bc 9f65 a33d 950d dcbb 4c5b 46bd
000001d0: c622 30be a0f7 bd3d 90d3 f13d 2a53 db3c
000001e0: 587f 73bd 1dda 41bd 2af6 9ebd 01b0 44bd
000001f0: e9e5 d83b fc85 c33c 0ca1 81bd 3c93 f6bd
00000200: 882b f63d 36ee e7bd f748 703c 945f e23d
00000210: d8be 193e 338b 443d 0105 f03d e327 cf3d
00000220: 3bd3 b2bc 1d81 66bc c39a a5bd 1c7f bebd
00000230: 921b 3f3e 7d2d b0bc aa73 583d e183 aabd
00000240: 44e2 8dbb 6e44 ccba 0c91 7ebd 09c9 b0bc
00000250: a207 f6bc 44a7 06bc d220 0e3d e520 b2bb
00000260: 0027 343d 6feb e5bc 9dbf 4a3d 1a25 bfbd
00000270: 2d04 39bd 675b 8b3d 83df 29be 1c37 1f3c
00000280: 2e07 c43d 1c20 073e d5f8 0f3c d517 b93c
00000290: f390 2abd b920 66ba 8280 d93d c143 e0bc
000002a0: 5bb3 8bbc db62 25bc aa3c 4abd 5de7 a93d
000002b0: 36ce 8dbd 39ff f53b aa66 37bd dbe6 74bc
000002c0: 349e 0e3d 280c 8b3d 2176 0b3d bc94 603d
000002d0: a050 0e3d e05f 29bc e5b4 513d 6dc1 cb3d
000002e0: 8af4 0fbd 0391 943d 08d8 a93d a5c2 b1bd
000002f0: 19f8 84bd 0264 e6bd 4a6d fbbc f146 18be
00000300: b909 a13c c551 2dbd 0d8a 30bc 8ebf 5a3c
00000310: 89a1 2fbc 99eb 253e ae8a ac3d 673c c63d
00000320: b525 94bd 8b71 073d 1950 bf3d 84e8 25bd
00000330: 5827 ef3b 6c4e 2e3b f8d4 aa3d 0299 9fbb
00000340: 804b fcbc ff7b 5cbd 8959 5f3d e0fc d3bc
00000350: 927b 74bd ba75 c13d f8b4 91bd 11fa 23bb
00000360: 7a14 4dbd e887 5cbd 895b bb3d f626 a239
00000370: b05d a0bc acc4 8d3d b540 d2bd c04a 7ebd
00000380: 8b94 de3c 64da d3bd cf25 643d 072c 39bd
00000390: dcbd 323d d3b7 7f3d 3062 94bd d381 8e3c
000003a0: e614 a93d 1622 0dbd 5439 98bc d08f 55bd
000003b0: b127 fdbd 21f9 58bc 38e5 92ba 3b90 2ebc
000003c0: ff62 4cbd b54b 60bd 9978 84bd bafc 19bd
000003d0: 4336 f3bc 5335 f03d 2967 ea3c 4489 553c
000003e0: 9945 d23d d10e f13b cacb df3c 4ba6 b53c
000003f0: a8b1 3d3d c756 943d 4fda 3a3b 0833 d43d

conv3.bias f4 [32]
0.053168543 0.0104225995 -0.0422257 -0.026078079 0.08233409 -0.06115014 0.017607238 -0.0069543687
-0.046088435 -0.07019436 0.0619711 0.008837992 -0.035786927 -0.050871506 0.058704652 0.037751116
-0.053349312 0.074222445 0.08090231 0.07172448 0.04896585 -0.027706357 -0.06150171 0.048746202
0.030122932 -0.046834204 -0.08012291 0.006392756 0.0041553285 0.0047166953 -0.036043074 -0.03268401
00000000: 42c7 593d 8dc3 2a3c dbf4 2cbd b2a1 d5bc
00000010: c69e a83d 9278 7abd 0e3d 903c 79e1 e3bb
00000020: 3ac7 3cbd 10c2 8fbd 68d5 7d3d 3acd 103c
00000030: 5095 12bd a45e 50bd 4a74 703d eaa0 1a3d
00000040: cf84 5abd f001 983d 1cb0 a53d 49e4 923d
00000050: 6a90 483d 71f8 e2bc 38e9 7bbd 19aa 473d
00000060: 5ec4 f63c 39d5 3fbd 7b17 a4bd 537a d13b
00000070: 6c29 883b 828e 9a3b e7a1 13bd abdf 05bd

bn3.weight f4 [32]
0.9844192 0.97301215 1.0402691 0.93600255 0.9393702 0.97142816 1.0208756 1.0524176
1.0057548 0.9610411 0.9287632 0.94756705 0.98449 0.9530813 1.0105398 0.9389771
0.9544974 1.0118221 0.9700499 0.9780665 1.0295041 1.0027726 1.0083461 0.90710825
0.95628375 1.0508994 0.9751585 1.0197 0.9580773 1.0427542 0.9807578 0.9965533
00000000: e602 7c3f 5317 793f 8a27 853f dd9d 6f3f
00000010: 917a 703f 84af 783f 0dac 823f 9fb5 863f
00000020: 93bc 803f ca06 763f 6dc3 6d3f c193 723f
00000030: 8907 7c3f 23fd 733f 5e59 813f ce60 703f
00000040: f159 743f 6383 813f 3155 783f 9162 7a3f
00000050: cac6 833f da5a 803f 7c11 813f 3f38 683f
00000060: 03cf 743f df83 863f fda3 793f 8885 823f
00000070: 8e44 753f f878 853f f112 7b3f 1e1e 7f3f

bn3.bias f4 [32]
-0.1792382 -0.0733031 -0.10855398 -0.1139887 -0.11433633 -0.12717651 -0.14310068 -0.23496555
-0.3442923 -0.15405865 -0.025575655 -0.33923617 -0.14484072 -0.22199006 -0.057044625 -0.10715008
-0.06781921 -0.21253026 -0.20810553 -0.15293507 -0.24597631 -0.13437739 -0.24729306 -0.30699772
-0.050765466 -0.3689832 -0.11131083 -0.14539011 -0.07985438 -0.17252065 -0.11850318 -0.10209151
00000000: 388a 37be f01f 96bd 8d51 debd e872 e9bd
00000010: 2a29 eabd 8f3a 02be fc88 12be cf9a 70be
00000020: 1547 b0be 8dc1 1dbe 0984 d1bc 5db0 adbe
00000030: 2051 14be 5d51 63be a0a7 69bd 8071 dbbd
00000040: cce4 8abd 88a1 59be 9e19 55be 039b 1cbe
00000050: 37e1 7bbe 3a9a 09be 643a 7dbe ce2e 9dbe
00000060: 73ef 4fbd 5eeb bcbe eff6 e3bd 25e1 14be
00000070: b18a a3bd 41a9 30be ccb1 f2bd 5b15 d1bd

bn3.running_mean f4 [32]
-0.5476901 0.41740063 -0.27429602 -0.89402205 -0.22945264 -0.30112663 -1.295934 -1.2911863
-2.0255806 -0.24074459 0.03999498 -1.7860951 -0.32330596 -1.8234235 -0.88406146 -0.23981991
-0.16528118 -1.3697145 -1.060954 -0.90452 0.49568266 -0.20981514 -1.2177905 -1.3743739
-0.8832054 -2.5002756 -0.84638524 -0.43934786 -0.83185667 0.29021114 -0.5059014 -0.73167527
00000000: 6b35 0cbf 89b5 d53e 8770 8cbe a1de 64bf
00000010: a2f5 6abe 452d 9abe 2ae1 a5bf 9845 a5bf
00000020: 1da3 01c0 c085 76be c7d1 233d c49e e4bf
00000030: 5c88 a5be f165 e9bf da51 62bf 5a93 75be
00000040: 783f 29be ce52 afbf 57cd 87bf 9f8e 67bf
00000050: 1eca fd3e c8d9 56be 8fe0 9bbf 7ceb afbf
00000060: c019 62bf 8404 20c0 b4ac 58bf 34f2 e0be
00000070: 8ff4 54bf 8e96 943e c182 01bf 124f 3bbf

bn3.running_var f4 [32]
0.7828903 1.1377041 0.8245223 0.507218 0.55501145 0.70469946 0.82721764 1.1871763
0.7949501 0.5214832 0.5033061 0.7306083 0.72319573 1.0300745 0.7209979 0.46629015
0.42069268 1.1976686 0.71476376 0.8025626 0.75663495 1.118963 0.8787441 0.40447274
0.4912543 0.95955825 0.30062208 0.98602915 0.5217106 0.9773506 0.66334003 0.4164225
00000000: 806b 483f 4aa0 913f e513 533f 0ad9 013f
00000010: 3b15 0e3f 2f67 343f 89c4 533f 65f5 973f
00000020: da81 4b3f ec7f 053f abd8 003f 2509 3b3f
00000030: 5b23 393f 7bd9 833f 5293 383f 95bd ee3e
00000040: 0865 d73e 344d 993f c2fa 363f be74 4d3f
00000050: d4b2 413f 2e3a 8f3f 60f5 603f 0d17 cf3e
00000060: af85 fb3e 9ca5 753f 23eb 993e 686c 7c3f
00000070: d38e 053f a633 7a3f a7d0 293f 5435 d53e

conv4.weight f4 [64, 32, 3, 3]
0.06843578 -0.013941363 0.027162936 0.026597803 -0.026099581 0.054685444 -0.012419706 -0.013703233
0.06524008 -0.04460895 -0.042397738 0.02236688 -0.021557001 0.0029307536 0.019196758 0.013843944
-0.043437213 -0.052139066 0.018904652 -0.048716325 0.02567102 -0.023719443 0.011270131 0.047490977
0.009064897 0.040751874 0.05623256 -0.00015823572 0.061003108 0.019284375 -0.021924645 0.0009691652
0.039872106 0.034536425 -0.034412544 0.00013550409 0.04375223 0.00198797 0.016103867 0.0005617114
0.030007247 -0.013887359 -0.03891381 0.06022191 0.05918157 -0.056305543 -0.024518603 0.0023412309
-0.047444724 -5.7642417e-05 0.03182599 0.038974233 0.0030226407 -0.024976632 0.04258131 0.055668868
-6.679461e-05 -0.0021840404 -0.005632464 0.0070689223 0.0076056 0.011728367 0.039159797 -0.0007594945
0.0010668352 0.008466857 -0.0021281268 -0.053834587 0.026099276 0.026665531 0.03988151 0.05554701
-0.020733608 0.016688963 0.05578004 -0.022868492 -0.0043088873 0.0038250713 -0.03528955 0.0030065654
-0.026186131 -0.050183807 0.02036251 -0.018403804 0.007256253 0.05222133 -0.059858464 -0.004020724
-0.0039339312 0.012694225 -0.037800252 -0.01744157 -0.0282839 -0.02998815 0.009187535 0.045089196
0.052001838 -0.031996377 -0.05920802 0.058621835 0.03593607 0.0034914487 -0.0035819625 -0.036906164
0.016218498 0.011595115 -0.027253177 -0.04359141 0.035473097 0.010433721 0.040773265 0.01295825
0.001162414 -0.033935454 -0.04496365 -0.025912108 0.03593636 -0.06201895 -0.04257226 -0.04394514
-0.012059621 -0.044826772 -0.053941395 -0.03851355 0.025551444 -0.0055008563 -0.009445535 0.029670512
0.041283052 0.04224936 0.029497439 0.059112564 0.014878966 0.0136651425 0.032799806 0.039307445
0.03567587 -0.025540633 0.02947317 -0.031176055 0.030209977 -0.04786072 -0.031174516 -0.03931577
-0.049734432 0.041826215 -0.031098962 -0.004387645 -0.0042031147 0.044980925 0.048623018 0.048807822
0.050064113 0.06073433 0.060074054 0.025539763 -0.04482119 0.0680422 0.045734532 0.043963857
-0.017985754 -0.03095764 -0.034847546 -0.0142606795 -0.009435059 0.030009495 0.050950684 -0.04976498
-0.05816113 0.021382198 -0.054343186 0.04026492 -0.007995016 -0.055337623 0.037750088 0.026184455
-0.004838895 -0.052922327 -0.041220985 -0.004897565 -0.044728193 -0.033719208 0.07066043 -0.050490886
0.04146673 0.0028391245 0.0070206956 0.002230262 0.06401232 0.023765083 0.023972765 -0.036266852
0.029620903 0.03214731 0.03636633 0.026824389 0.022838498 0.05441904 0.024026608 0.022072066
-0.049303096 -0.018435966 0.018070992 0.0016109254 0.03390179 0.05305044 -0.040403314 -0.019790672
-0.0129325995 0.03592423 -0.044738267 -0.011092472 0.017618354 -0.042823963 -0.046727084 -0.009443227
-0.013998743 -0.019828178 0.020162897 -0.027126268 -0.03080255 0.03579284 0.026847964 0.01427606
-0.006802882 -0.018307695 -0.011251544 -0.03826333 -0.038536023 0.07123502 0.0492474 0.022398468
0.005138087 -0.0075268014 -0.005780115 0.025066 -0.026803724 -0.01344228 -0.011880173 -0.014058997
0.036364574 0.05536606 -0.04075923 -0.0011022611 0.016628934 0.015297931 0.024435943 -0.0010818868
0.04739703 0.020256022 -0.056164976 0.050186343 0.03129109 0.00488996 0.01515046 0.05993402
00000000: 0f28 8c3d 516a 64bc ce84 de3c a3e3 d93c
00000010: cace d5bc d8fd 5f3d 067c 4bbc 8683 60bc
00000020: 979c 853d e0b7 36bd 40a9 2dbd bf3a b73c
00000030: 4f98 b0bc e311 403b 8542 9d3c b6d1 623c
00000040: 38eb 31bd c68f 55bd eedd 9a3c c58a 47bd
00000050: 084c d23c 474f c2bc 5ba6 383c e685 423d
00000060: ef84 143c 70eb 263d 1d54 663d 14ec 25b9
00000070: 65de 793d 44fa 9d3c 509b b3bc 930f 7e3a
00000080: ef50 233d 1176 0d3d 2bf4 0cbd 1a16 0e39
00000090: 8a35 333d 9a48 023b 42ec 833c d03f 133a
000000a0: c2d1 f53c ce87 63bc 1664 1fbd 40ab 763d
000000b0: 6068 723d a4a0 66bd 3ddb c8bc 566f 193b
000000c0: 6655 42bd 13c5 71b8 f85b 023d 72a3 1f3d
000000d0: 7f17 463b cb9b ccbc bd69 2e3d 0a05 643d
000000e0: 1514 8cb8 1e22 0fbb 8890 b8bb 6ba2 e73b
000000f0: 6638 f93b 5628 403c 0666 203d d018 47ba
00000100: 0dd5 8b3a 92b8 0a3c 0b78 0bbb a881 5cbd
00000110: 26ce d53c ac71 da3c cb5a 233d 4385 633d
00000120: 87d9 a9bc 4bb7 883c 9c79 643d b456 bbbc
00000130: 9131 8dbb 0cae 7a3b c68b 10bd cc09 453b
00000140: 4c84 d6bc 898d 4dbd 47cf a63c 93c3 96bc
00000150: ddc5 ed3b 09e6 553d 262e 75bd 47c0 83bb
00000160: 35e8 80bb 70fb 4f3c 70d4 1abd a0e1 8ebc
00000170: a3b3 e7bc b5a9 f5bc 5187 163c 73af 383d
00000180: e1ff 543d a20e 03bd 1c84 72bd 731d 703d
00000190: b331 133d cad0 643b 5cbf 6abb eb2a 17bd
000001a0: a8dc 843c 70f9 3d3c 0e42 dfbc e88c 32bd
000001b0: 3d4c 113d 33f2 2a3c de01 273d d74e 543c
000001c0: 245c 983a e7ff 0abd ce2b 38bd a145 d4bc
000001d0: 0132 133d 9507 7ebd 4060 2ebd d2ff 33bd
000001e0: b795 45bc 479c 37bd a7f1 5cbd 62c0 1dbd
000001f0: 4351 d13c 8740 b4bb 72c1 1abc 930f f33c
00000200: 6b18 293d aa0d 2d3d 9da4 f13c 0420 723d
00000210: e8c6 733c c3e3 5f3c 1759 063d d800 213d
00000220: dc20 123d 973a d1bc b871 f13c ed64 ffbc
00000230: ea7a f73c 9a09 44bd b361 ffbc 9309 21bd
00000240: 55b6 4bbd f751 2b3d 40c3 febc 3cc6 8fbb
00000250: 48ba 89bb eb3d 383d ee28 473d b6ea 473d
00000260: 0710 4d3d 90c4 783d 3610 763d c438 d13c
00000270: 6d96 37bd b559 8b3d 2254 3b3d 7213 343d
00000280: dc56 93bc e09a fdbc 4dbc 0ebd a0a5 69bc
00000290: 8195 1abc 79d6 f53c aab1 503d 5dd6 4bbd
000002a0: 5d3a 6ebd b829 af3c f696 5ebd d4ec 243d
000002b0: 87fd 02bc b4a9 62bd d69f 1a3d c880 d63c
000002c0: 988f 9ebb 15c5 58bd 56d7 28bd c17b a0bb
000002d0: e934 37bd 271d 0abd 6ab6 903d 88cf 4ebd
000002e0: 05d9 293d 9b10 3a3b dd0d e63b 9629 123b
000002f0: e418 833d feae c23c 8862 c43c 8d8c 14bd
00000300: 89a7 f23c e6ac 033d dcf4 143d d2be db3c
00000310: cd17 bb3c 80e6 5e3d 73d3 c43c 7ad0 b43c
00000320: 0bf2 49bd 0607 97bc 9e09 943c b025 d33a
00000330: 9adc 0a3d 6b4b 593d f27d 25bd 0c20 a2bc
00000340: 41e3 53bc 4925 133d 793f 37bd 33bd 35bc
00000350: 5e54 903c 2e68 2fbd e664 3fbd c4b7 1abc
00000360: fc5a 65bc b46e a2bc a92c a53c e837 debc
00000370: a155 fcbc 839b 123d 43f0 db3c 23e6 693c
00000380: b6ea debb 05fa 95bc 6558 38bc 02ba 1cbd
00000390: f3d7 1dbd abe3 913d a4b7 493d fe7c b73c
000003a0: 665d a83b 63a3 f6bb 1e67 bdbb 3657 cd3c
000003b0: 7c93 dbbc 023d 5cbc 0fa5 42bc b557 66bc
000003c0: 05f3 143d 86c7 623d 26f3 26bd bf79 90ba
000003d0: 6739 883c 2ca4 7a3c e32d c83c 19ce 8dba
000003e0: 6323 423d f5ef a53c 3f0d 66bd 3290 4d3d
000003f0: 162b 003d f53b a03b a339 783c 607d 753d

conv4.bias f4 [64]
-0.012382877 0.028478693 0.03042579 -0.02046282 -0.0500741 0.0045490926 0.04692059 -0.04039377
0.032858748 -0.041494053 -0.04289694 0.0037484115 0.03664586 -0.0350657 0.02960552 0.039102167
-0.044354852 -0.024118345 0.0067826007 -0.03495213 -0.0047886134 -0.027512634 0.057854388 0.04083752
-0.05205652 -0.050300505 -0.056139752 -0.012169393 0.04928109 -0.039169393 -0.040884532 -0.0042736623
0.013190518 0.056139063 0.04075474 0.03385929 -0.049065668 0.05235004 -0.049764976 -0.037580993
0.047929276 0.002600396 -0.010589147 -0.005891547 0.01644815 0.014412226 0.039096978 -0.03218319
-0.042306777 0.033811644 -0.044987388 0.055551138 0.045378737 0.040697716 -0.057553377 0.052933566
-0.02370438 -0.026969306 -0.0010652769 0.030237855 0.0036024274 0.035024878 0.038247105 -0.0045927763
00000000: 8de1 4abc 264c e93c 823f f93c a5a1 a7bc
00000010: 801a 4dbd 8e10 953b ce2f 403d f073 25bd
00000020: e596 063d abf5 29bd b4b4 2fbd e9a7 753b
00000030: f819 163d 0da1 0fbd 4787 f23c 9829 203d
00000040: 6fad 35bd d693 c5bc 9440 de3b f729 0fbd
00000050: cde9 9cbb 2d62 e1bc b9f8 6c3d 3e45 273d
00000060: 3839 55bd e707 4ebd ccf2 65bd 2262 47bc
00000070: f8da 493d 1670 20bd 8a76 27bd 140a 8cbb
00000080: 0b1d 583c 13f2 653d 71ee 263d 0ab0 0a3d
00000090: 15f9 48bd ff6c 563d 5cd6 4bbd 87ee 19bd
000000a0: 7d51 443d 686b 2a3b 1a7e 2dbc e10d c1bb
000000b0: 45be 863c 4221 6c3c 2724 203d 85d2 03bd
000000c0: df49 2dbd 147e 0a3d b244 38bd 9789 633d
000000d0: 0edf 393d a6b2 263d 17bd 6bbd ded0 583d
000000e0: b02f c2bc bcee dcbc c3a0 8bba 61b5 f73c
000000f0: b416 6c3b 3f76 0f3d ffa8 1c3d 007f 96bb

bn4.weight f4 [64]
1.0084764 1.2241703 1.2595997 1.2864405 1.1853442 1.3792367 1.1117281 1.1682634
1.0732442 1.2613033 1.1204417 1.0771823 1.1408334 1.1918387 1.3405938 1.2041146
1.1435558 1.34454 1.2826133 1.3091856 1.1844684 1.2449623 1.1004863 1.2429421
1.0669047 1.1138889 1.1885031 1.1506077 1.2294778 1.39812 1.1144449 1.1299807
1.1094918 1.1264039 1.0992864 1.0605018 1.1236211 1.2126129 1.1971668 1.1855972
1.1399033 1.2524191 1.1682143 1.196238 1.348003 1.2190076 1.1979754 1.1142886
1.1684996 1.02833 1.1678551 1.1939565 1.220746 1.2309183 1.2127761 1.2784568
1.1478585 1.3217963 1.0709324 1.1093969 1.1825902 1.0866401 1.1690239 1.1188365
00000000: c115 813f 9db1 9c3f 903a a13f 15aa a43f
00000010: 5cb9 973f d48a b03f 1b4d 8e3f a889 953f
00000020: 1160 893f 6372 a13f a26a 8f3f 1ce1 893f
00000030: d406 923f 2c8e 983f 9498 ab3f 6d20 9a3f
00000040: 0960 923f e319 ac3f ac2c a43f 6593 a73f
00000050: a99c 973f ed5a 9f3f bcdc 8c3f ba18 9f3f
00000060: 5590 883f e993 8e3f df20 983f 1d47 933f
00000070: 875f 9d3f 99f5 b23f 21a6 8e3f 35a3 903f
00000080: d403 8e3f 012e 903f 6bb5 8c3f 86be 873f
00000090: d1d2 8f3f e636 9b3f c33c 993f a6c1 973f
000000a0: 5ae8 913f 454f a03f 0c88 953f 541e 993f
000000b0: 5d8b ac3f 7108 9c3f 4257 993f 02a1 8e3f
000000c0: 6591 953f 51a0 833f 477c 953f 91d3 983f
000000d0: 6841 9c3f bb8e 9d3f 3f3c 9b3f 79a4 a33f
000000e0: 07ed 923f 9f30 a93f 5014 893f b800 8e3f
000000f0: 1e5f 973f 0617 8b3f 93a2 953f 0936 8f3f

bn4.bias f4 [64]
-0.0102337 0.08516931 -0.034679566 0.11416761 0.050345294 0.011297778 0.005434284 0.051679924
0.037038982 -0.0636965 0.060214844 -0.010703844 -0.04383816 -0.009480692 -0.0048103505 0.02714931
0.04705557 -0.095079504 -0.069742054 0.0247301 0.0060611507 -0.045778323 0.03846068 0.07926847
0.009908681 0.041185163 0.01784579 0.05444139 0.03854327 0.011199791 -0.0017858509 0.041857217
0.006123849 -0.004994266 0.05378808 0.020381168 0.008915639 -0.012289184 -0.020804102 -0.033724837
-0.018041173 0.016513992 0.072616234 0.000184192 0.041293975 -0.07819627 0.06723248 0.0049881353
0.034724202 -0.012350753 0.006813256 -0.009693757 0.07342499 0.038137954 0.032466397 0.1249484
0.03181202 -0.029780295 0.03580818 0.026470227 0.02517987 0.01904066 0.016121889 0.01894735
00000000: 40ab 27bc 3f6d ae3d 290c 0ebd b5d0 e93d
00000010: de36 4e3d 511a 393c 1412 b23b 54ae 533d
00000020: 30b6 173d 5073 82bd d7a3 763d 2d5f 2fbc
00000030: a48f 33bd e854 1bbc 25a0 9dbb 3b68 de3c
00000040: 57bd 403d 0bb9 c2bd ecd4 8ebd c796 ca3c
00000050: 9e9c c63b 0d82 3bbd f288 1d3d 8257 a23d
00000060: 0558 223c c6b1 283d 5631 923c effd 5e3d
00000070: 8cdf 1d3d 547f 373c 3613 eaba 7972 2b3d
00000080: 92aa c83b f1a6 a3bb e450 5c3d 68f6 a63c
00000090: e612 123c 9358 49bc 5d6d aabc 0e23 0abd
000000a0: 15cb 93bc 5a48 873c d2b7 943d aa23 4139
000000b0: df23 293d 5e25 a0bd 2fb1 893d 8373 a33b
000000c0: f73a 0e3d d05a 4abc bc41 df3b 90d2 1ebc
000000d0: d75f 963d 8b36 1c3d 7cfb 043d f2e4 ff3d
000000e0: 524d 023d cef5 f3bc 99ab 123d 17d8 d83c
000000f0: 0446 ce3c 28fb 9b3c 0d12 843c 7937 9b3c

bn4.running_mean f4 [64]
0.22610517 0.43741122 0.06378756 0.18914025 0.03653401 0.066401646 0.16392875 0.025753358
0.35375026 0.051253766 0.07829344 0.04529965 0.19041982 -0.24772035 0.0063043847 0.18472001
0.24452944 0.11758304 0.060404606 0.436206 0.22738457 0.13758034 0.41919008 -0.05281766
0.18393405 -0.27272433 -0.10350646 -0.049374014 0.039289575 0.4999289 -0.0325729 -0.09514681
0.12525111 0.05348384 -0.002730962 0.13776016 -0.37851393 0.14795871 -0.24062632 0.24077265
0.055924777 0.25582922 0.24390937 0.17375347 -0.027475111 0.14459355 0.4503604 -0.062251445
0.31757706 0.06462147 0.11419909 -0.17764582 0.21083462 0.45171374 0.14286743 0.14348267
0.027549533 -0.05279822 0.10117484 0.15163508 0.41311926 0.31623772 -0.11119367 0.2822955
00000000: 1d88 673e 5df4 df3e 0da3 823d fbad 413e
00000010: b0a4 153d 96fd 873d f0dc 273e b5f8 d23c
00000020: c11e b53e 78ef 513d 5058 a03d 208c 393d
00000030: 6afd 423e 67aa 7dbe 0395 ce3b 3e27 3d3e
00000040: ed65 7a3e 60cf f03d d26a 773d 6556 df3e
00000050: 80d7 683e dce1 0c3e 15a0 d63e 5557 58bd
00000060: 3559 3c3e 86a2 8bbe 32fb d3bd 683c 4abd
00000070: 1bee 203d aef6 ff3e 296b 05bd 55dc c2bd
00000080: d441 003e df11 5b3d f0f9 32bb 0011 0d3e
00000090: 94cc c1be 7d82 173e bf66 76be 1b8d 763e
000000a0: 6111 653d 0cfc 823e 61c3 793e 6eec 313e
000000b0: 7c13 e1bc 5510 143e a395 e63e 5ffb 7ebd
000000c0: 7699 a23e 4358 843d 36e1 e93d c9e8 35be
000000d0: 08e5 573e 0647 e73e d74b 123e 1fed 123e
000000e0: 8faf e13c f242 58bd c134 cf3d 3a46 1b3e
000000f0: 5e84 d33e e9e9 a13e 82b9 e3bd 0989 903e

bn4.running_var f4 [64]
0.078012295 0.09569164 0.09031898 0.071071245 0.107405566 0.09540988 0.095563166 0.100502774
0.09258777 0.11018386 0.07087901 0.09468758 0.08116956 0.12840153 0.097831294 0.14381953
0.07601316 0.11885689 0.12977104 0.09836222 0.0785828 0.12593281 0.07758073 0.09572896
0.07856588 0.07748312 0.07772302 0.102769874 0.10875246 0.12516846 0.12298672 0.08271751
0.100917935 0.055004753 0.10133346 0.091946095 0.10973208 0.15938057 0.11008421 0.16991888
0.092328034 0.1170719 0.09106974 0.15963393 0.11594797 0.13774954 0.10574233 0.10287459
0.087400995 0.08085605 0.09560874 0.08574854 0.11575375 0.095594786 0.10981059 0.11892953
0.08089728 0.10755608 0.089268915 0.10190446 0.098410614 0.06823856 0.09291687 0.09768499
00000000: e9c4 9f3d fbf9 c33d 28f9 b83d cd8d 913d
00000010: 73f7 db3d 4166 c33d 9fb6 c33d 66d4 cd3d
00000020: a89e bd3d 13a8 e13d 0429 913d 90eb c13d
00000030: 3a3c a63d b17b 033e c65b c83d 6d45 133e
00000040: caac 9b3d 3e6b f33d b3e2 043e 2272 c93d
00000050: 05f0 a03d 88f4 003e a5e2 9e3d 8c0d c43d
00000060: 26e7 a03d 78af 9e3d 3f2d 9f3d 0379 d23d
00000070: 9cb9 de3d 292c 003e 76e0 fb3d cc67 a93d
00000080: 10ae ce3d aa4c 613d eb87 cf3d 3c4e bc3d
00000090: 36bb e03d a934 233e d573 e13d 37ff 2d3e
000000a0: 7b16 bd3d 64c3 ef3d c682 ba3d 1477 233e
000000b0: 2176 ed3d 370e 0d3e 6f8f d83d eaaf d23d
000000c0: 4bff b23d db97 a53d 84ce c33d ee9c af3d
000000d0: 4d10 ed3d 33c7 c33d 60e4 e03d 5391 f33d
000000e0: 79ad a53d 5d46 dc3d 9fd2 b63d 49b3 d03d
000000f0: 818b c93d a8c0 8b3d 334b be3d 110f c83d

fc1.weight f4 [8, 64]
0.17225757 0.34837613 -0.23893297 -0.05474909 0.0056590233 -0.32362482 -0.16056226 0.24328692
0.040224306 -0.22822964 -0.27072766 -0.117985986 0.07675997 -0.13210094 0.5145407 -0.1346243
0.11335177 -0.2782935 -0.27647242 0.30704114 0.08530294 -0.16107488 0.12861255 -0.49004614
0.06278241 0.18158026 -0.2662306 -0.15245348 -0.23452587 0.63425237 -0.19891724 0.09125094
-0.30193853 0.06736863 0.14632154 0.040342033 0.022600146 -0.07846145 0.13525972 -0.13245176
-0.056023087 -0.4814198 0.18988952 -0.11224244 0.63131744 -0.022045916 0.3722519 0.07537279
0.2040394 0.07872934 -0.32084316 0.23322664 -0.39104757 0.46070316 0.5523014 -0.5294675
0.008598062 -0.2500525 -0.10342506 -0.27500588 0.3981928 0.27009532 0.03236631 0.1257974
0.054649845 -0.253923 0.3340601 0.3013894 0.2400597 -0.12036977 0.1116425 -0.2867495
0.056046247 0.440644 -0.04231323 0.20226201 0.29186186 0.022660475 -0.18744572 0.12745444
-0.095536135 0.4722631 0.5265658 0.28541064 0.095388636 0.5397679 -0.22349289 -0.22440362
-0.30806917 -0.018709585 -0.2090515 0.16952142 -0.42965987 0.2554479 0.17840186 -0.1839136
-0.18954566 0.16268477 -0.33204612 -0.13442543 -0.19475846 0.30424082 -0.13005653 0.36168647
0.1654561 -0.20269172 -0.32307476 0.49467874 -0.17313667 0.4725708 -0.011360058 -0.0524626
-0.00589695 -0.25698027 0.10787044 -0.26864934 0.107577555 0.30964297 -0.06657647 0.40610695
0.17680581 0.38867134 0.020955957 0.086049356 -0.41105932 0.027171046 -0.19019933 -0.07670953
-0.034724534 0.3376289 0.4750852 0.19812073 0.1951181 -0.0087000765 -0.10103499 -0.22925141
-0.124033704 -0.23230588 0.3495988 -0.079044044 0.43917263 -0.31250983 -0.038290728 -0.37763125
0.33078003 0.5692943 0.23361969 -0.289768 0.4796384 -0.06101666 0.14828496 -0.23482578
-0.08929216 -0.25553766 -0.18656132 0.3455599 -0.33943957 -0.19044894 0.09018873 -0.26262224
-0.1227772 0.35623878 0.16249655 0.21770822 -0.24196525 -0.32448757 -0.11331416 -0.38870308
0.40588567 0.19730175 0.26138228 -0.05049847 -0.35241258 -0.15488309 -0.29089856 -0.26859915
-0.07989028 -0.0077945045 0.10177093 -0.13518435 0.35631597 0.089666225 -0.3233542 0.2738935
0.33233458 0.38703135 0.020449257 0.15672375 0.11646955 0.26476818 -0.039933287 -0.25186655
0.082726 -0.37883106 -0.15170455 0.5018564 0.48539677 0.051766302 0.39202198 -0.38622117
0.11131581 -0.13653244 -0.17825203 0.3374862 -0.15478861 0.026474496 -0.3536003 0.3922918
-0.04426324 -0.22638264 0.074781835 0.5362789 0.01008523 0.12559226 -0.23721156 0.29027167
-0.004448949 -0.271261 -0.0035485062 0.2813538 0.2479999 0.34404388 -0.2660181 -0.2044466
-0.2385339 -0.18610546 -0.26828006 0.03375643 0.07539825 0.19713624 -0.06667181 0.18919066
-0.03572409 -0.052284695 -0.37601927 0.19551732 -0.41679513 -0.044647265 -0.1331738 0.4489543
0.2996186 0.02559209 -0.20045471 -0.21510032 0.15450305 0.1252394 -0.27180532 0.18341014
0.27047694 -0.38147712 0.11204249 0.00975581 -0.07472964 -0.27106556 0.042350646 0.3143592
00000000: 4a64 303e 5b5e b23e d8aa 74be 9540 60bd
00000010: 546f b93b 27b2 a5be 6f6a 24be 3520 793e
00000020: 3ec2 243d 08b5 69be d19c 8abe a3a2 f1bd
00000030: 5534 9d3d 7845 07be f0b8 033f f4da 09be
00000040: f924 e83d 7c7c 8ebe cb8d 8dbe 7f34 9d3e
00000050: 4fb3 ae3d d0f0 24be 02b3 033e 54e7 fabe
00000060: 1094 803d 2df0 393e 614f 88be c41c 1cbe
00000070: 8d27 70be 5d5e 223f f6b0 4bbe c6e1 ba3d
00000080: b097 9abe 90f8 893d 50d5 153e b03d 253d
00000090: f123 b93c 66b0 a0bd 8681 0a3e 6fa1 07be
000000a0: 7778 65bd a87c f6be 6672 423e 5ddf e5bd
000000b0: 059e 213f a399 b4bc cd97 be3e 0d5d 9a3d
000000c0: b4ef 503e d93c a13d 8e45 a4be f7d2 6e3e
000000d0: 6337 c8be 49e1 eb3e a063 0d3f 2f8b 07bf
000000e0: e3de 0c3c e206 80be 85d0 d3bd 92cd 8cbe
000000f0: eddf cb3e ef49 8a3e 8992 043d 09d1 003e
00000100: 84d8 5f3d 3202 82be ed09 ab3e b64f 9a3e
00000110: 36d2 753e 6d84 f6bd d3a4 e43d d5d0 92be
00000120: c090 653d 179c e13e a350 2dbd c61d 4f3e
00000130: eb6e 953e 76a2 b93c c5f1 3fbe 6b83 023e
00000140: 73a8 c3bd 78cc f13e 04cd 063f 5821 923e
00000150: 1e5b c33d 3b2e 0a3f 52db 64be 10ca 65be
00000160: 3ebb 9dbe d844 99bc 9911 56be 0697 2d3e
00000170: 61fc dbbe 11ca 823e faae 363e d953 3cbe
00000180: 4218 42be d696 263e f301 aabe d2a6 09be
00000190: c36e 47be 74c5 9b3e 8a2d 05be f82e b93e
000001a0: 536d 293e 6b8e 4fbe 0e6a a5be 8846 fd3e
000001b0: bd4a 31be cdf4 f13e 891f 3abc 06e3 56bd
000001c0: 343b c1bb eb92 83be 2deb dc3d 688c 89be
000001d0: 9f51 dc3d 8689 9e3e 3f59 88bd 40ed cf3e
000001e0: 950c 353e eeff c63e d4ab ab3c a53a b03d
000001f0: 5e76 d2be d095 de3c 9dc3 42be e319 9dbd
00000200: 503b 0ebd b2dd ac3e 5e3e f33e 29e0 4a3e
00000210: 0acd 473e c48a 0ebc 6feb cebd e2c0 6abe
00000220: 6205 febd 98e1 6dbe 9dfe b23e d8e1 a1bd
00000230: 3cdb e03e 4a01 a0be bdd6 1cbd e258 c1be
00000240: 005c a93e 45bd 113f 003a 6f3e 795c 94be
00000250: 2a93 f53e 9bec 79bd 03d8 173e 2b76 70be
00000260: cfde b6bd d5d5 82be ee09 3fbe 3aed b03e
00000270: 06cb adbe 0c05 43be deb4 b83d 6c76 86be
00000280: 9d72 fbbd ee64 b63e 7f65 263e e7ee 5e3e
00000290: bdc5 77be 3c23 a6be 4111 e8bd 1704 c7be
000002a0: 3fd0 cf3e 7809 4a3e e6d3 853e 7cd7 4ebd
000002b0: 6c6f b4be ac99 1ebe a8f0 94be d485 89be
000002c0: 849d a3bd 0b69 ffbb 476d d03d c46d 0abe
000002d0: 0c6f b63e eda2 b73d af8e a5be c53b 8c3e
000002e0: c227 aa3e f928 c63e 3385 a73c 317c 203e
000002f0: 9687 ee3d b28f 873e 1691 23bd a7f4 80be
00000300: 406c a93d 25f6 c1be 7058 1bbe a979 003f
00000310: ed85 f83e e708 543d 1bb7 c83e c8be c5be
00000320: 8bf9 e33d 29cf 0bbe b387 36be feca ac3e
00000330: e880 1ebe 0be1 d83c 190b b5be 79da c83e
00000340: 5f4d 35bd dad0 67be 3827 993d 9349 093f
00000350: 853c 253c 429b 003e 96e7 72be 7d9e 943e
00000360: 7dc8 91bb b9e2 8abe 0e8e 68bb 9b0d 903e
00000370: b0f3 7d3e 8526 b03e 8633 88be 735a 51be
00000380: 3b42 74be 6e92 3ebe 015c 89be 2f44 0a3d
00000390: 666a 9a3d 15de 493e 3b8b 88bd 32bb 413e
000003a0: 6c53 12bd 7a28 56bd 9985 c0be b135 483e
000003b0: 2c66 d5be 0de0 36bd b65e 08be 57dd e53e
000003c0: 9c67 993e 81a6 d13c 0044 4dbe 4243 5cbe
000003d0: 0c36 1e3e c23e 003e 112a 8bbe decf 3b3e
000003e0: f47b 8a3e f850 c3be 8876 e53d d5d6 1f3c
000003f0: da0b 99bd 1bc9 8abe df77 2d3d b0f3 a03e

fc1.bias f4 [8]
0.122999534 0.012333459 -0.06474494 -0.16415255 0.09725267 0.011723009 -0.054871064 0.05513569
00000000: 2ee7 fb3d 4712 4a3c ff98 84bd 9b17 28be
00000010: 682c c73d dd11 403c 7bc0 60bd f6d5 613d

fc2.weight f4 [10, 8]
0.77153754 -0.4180202 -0.42229992 -0.6468684 0.9141795 0.80353916 -0.69842494 -0.28677124
-0.6172545 0.9108983 0.060285345 0.6368769 1.0315814 0.83846194 -0.10515752 0.95296884
-0.7577812 0.62405455 0.88237166 0.71008486 -0.42264977 -0.46332783 0.73401994 -0.19772136
-0.71662813 -0.878138 0.80343044 -0.7137805 -0.44259912 -0.6859716 0.8156796 0.5720277
-0.41156423 -0.36939713 -0.34708112 0.70986694 0.77070165 0.5623349 -0.6884413 0.013880803
0.85533804 -0.53540814 -0.4597781 -0.35178974 -0.65302664 -0.7280972 -0.47648686 -0.18172047
0.76768136 0.70296663 -0.74878556 0.8622128 -0.23786512 -0.76701033 -0.853061 -0.14600861
-0.7525958 0.86568254 1.0567616 -0.65722865 -0.3086297 0.83789235 0.6773703 -0.29897344
0.6391655 -0.74190164 -0.59400755 -0.3906142 -0.37172344 -0.6322683 0.6550491 -0.2524522
0.65443665 -0.39670494 0.86110103 -0.5177733 -0.4283129 0.62546265 -0.35558918 -0.16464601
00000000: 7c83 453f be06 d6be b237 d8be 2b99 25bf
00000010: ab07 6a3f beb4 4d3f facb 32bf aed3 92be
00000020: 6404 1ebf a230 693f c4ed 763d 5d0a 233f
00000030: dc0a 843f 71a5 563f d35c d7bd c4f5 733f
00000040: f3fd 41bf 0ac2 1f3f 1ce3 613f 1fc8 353f
00000050: 8d65 d8be 4e39 edbe bbe8 3b3f 7877 4abe
00000060: f174 37bf a7cd 60bf 9ead 4d3f 52ba 36bf
00000070: 5a9c e2be d69b 2fbf 61d0 503f 6870 123f
00000080: 8cb8 d2be 9f21 bdbe 9eb4 b1be d7b9 353f
00000090: b44c 453f 2ef5 0f3f b03d 30bf 4f6c 633c
000000a0: 6ff7 5a3f 8210 09bf 0968 ebbe c91d b4be
000000b0: c12c 27bf 9464 3abf 16f6 f3be ee14 3abe
000000c0: c486 443f 9ff5 333f 69b0 3fbf fab9 5c3f
000000d0: ea92 73be ca5a 44bf 3562 5abf 4883 15be
000000e0: 1eaa 40bf 5f9d 5d3f f743 873f 2340 28bf
000000f0: b604 9ebe 1d80 563f 2468 2d3f 0c13 99be
00000100: 5aa0 233f 44ed 3dbf e110 18bf 96fe c7be
00000110: 8952 bebe 56dc 21bf 4cb1 273f 6a41 81be
00000120: 2989 273f e91c cbbe 1e71 5c3f ca8c 04bf
00000130: d44b dbbe 521e 203f c90f b6be f798 28be

fc2.bias f4 [10]
-0.22153425 -2.1227877 -0.08200562 0.46398774 0.67010677 0.7313641 -0.11314752 -1.3817962
1.1915298 0.5920836
00000000: e0d9 62be c1db 07c0 90f2 a7bd cd8f ed3e
00000010: 1e8c 2b3f ad3a 3b3f e3b9 e7bd b3de b0bf
00000020: 0c84 983f ca92 173f
